model.pth (torch, 56814 bytes, 23 tensors)

conv1.weight f4 [8, 1, 3, 3]
00000000: 0759 8e3e 68db 82bd 951a 8f3e 07c6 be3d
00000010: 1aaf ad3e de05 6abd 30e8 edbd 972c 29be
00000020: 076a 223e 6824 ec3c 4a61 b1bc 348b dd3e
00000030: b30d 3fbe 0e60 0bbe 7134 573e 33bc ed3b
00000040: 37e8 dabd e227 9b3e 07ce c73d 9082 dcbc
00000050: 0a36 873d d0ae 743d 3354 14be fa2c bb3e
00000060: 64e3 cdbd c016 b6be 0c8f 123c 91fa 30be
00000070: 11bd ebbc 70e3 483e bccd 9a3e 63e3 77be
00000080: 02f5 85be 940c 58be 1003 8bbe 4eaa 83be
00000090: 58cc 0f3f 3990 94bd 7248 603d e195 52be
000000a0: 06ce 3cbe 8298 38be 295e 063f 4b9a 35bd
000000b0: 04ef 813c e945 dabd c772 01be 491d e43e
000000c0: c083 40be 7f9c 2dbe 5500 883d 5c92 f4bd
000000d0: deb6 383e 1ff6 003e add6 54bd 88db 8e3e
000000e0: 0d94 37be c3b3 5dbe b52a fa3d 0fb8 f2ba
000000f0: 1d1d 513e 68a3 09be d101 823e 1dfe fa3d
00000100: c150 ecbd f8ae d6be fdcb b23d ee59 d9bd
00000110: fa52 4ebd 91b3 083d 41be 2fbd e710 0f3e
0.27802297 -0.06389505 0.27949968 0.093151145 0.33922654 -0.0571345 -0.11616552 -0.16520916
0.15860759 0.028825954 -0.021652836 0.43270266 -0.1865757 -0.1361086 0.21016099 0.007255101
-0.10688823 0.30303866 0.097560935 -0.026917726 0.06602104 0.059737027 -0.14485244 0.36557752
-0.10053137 -0.35564232 0.008945238 -0.17283083 -0.028776677 0.1961801 0.30235088 -0.24207835
-0.2616349 -0.21098548 -0.27150774 -0.2571587 0.5617118 -0.07254071 0.05475659 -0.20564987
-0.18437967 -0.18026927 0.52487427 -0.0443366 0.015861042 -0.106578656 -0.1264144 0.44553593
-0.18800259 -0.1695423 0.06640688 -0.11941978 0.18038508 0.12593888 -0.051962543 0.27901864
-0.1792757 -0.21650605 0.12215177 -0.0018517989 0.20421262 -0.13441241 0.2539201 0.122554995
-0.1153884 -0.41930366 0.08730314 -0.10612856 -0.0503721 0.033374373 -0.04290605 0.13971291

conv1.bias f4 [8]
00000000: 01bf 413d b283 a1bd aeb1 613e 54d3 1fbe
00000010: 1525 12be 34c9 603c d74d 5ebd a94a 863d
0.047301296 -0.07886447 0.22040436 -0.15607959 -0.14271958 0.013719846 -0.054273453 0.06557209

conv2.weight f4 [16, 8, 3, 3]
00000000: c53e bebc 44c7 763d 7a90 0cbe 4224 27bd
00000010: 0785 68bc fc94 973d db6e 5abd c937 ea3d
00000020: 7917 063d 4456 fc3c 4571 b03d f0c1 82bd
00000030: 0f7b debd 0774 ec3d 6825 4dbc 4119 10bd
00000040: 785e 373e a24d 443d 1f96 ae3d b495 afbd
00000050: 78d8 07be 0636 9a3d df4b 59be 472a 8fbe
00000060: 9ccb 8cbd ee1e fbbd 61f2 e6ba 564e 7a3d
00000070: 29b3 553e 20eb 7b3e ae28 843e ee6f e33e
00000080: dff2 b33e dd63 d23e 29c9 e53e ad93 ae3e
00000090: 5fd3 493d 27be 99bd dfd4 45bc 4483 21bd
000000a0: 9794 fa3d db71 8b3d d3ff 1bbe f99d 0ebc
000000b0: 5ae9 8fbc c217 14be 6c24 0ebe 5420 e43d
000000c0: d61e 00bd f5fc b6bc e361 14be b581 28bd
000000d0: 5203 cabc 79e6 c03d a5dd 1a3d 155d a3bd
000000e0: 9b74 3dbc df88 69bd dcb1 c83c 9bab 27bd
000000f0: 015e 6cbd 3f8f c0bc 4afc 4dbd 4757 1bbd
00000100: 5769 cfbd 5fd5 e9bd 2324 813d 2ad1 28be
00000110: 9e37 afbc e887 b0bb f7ba 95bd 4cc9 b63d
00000120: 1175 223e 31be 9bbd 618b f3bd cca3 163e
00000130: 215b 98bd b2f2 053c 2544 573c 5f90 aabc
00000140: c1dd 01bd c9ee 0f3e f269 0fbe 616e 68bd
00000150: bfad 8b3d 1e87 cc3d 4932 dc3b 9076 a53b
00000160: 87e4 04bd ed29 ce3c 76ec 323e 87fe 96bd
00000170: a628 443e 3e6d 41bd 94f4 f33d bca8 cebd
00000180: e75a b73d 37e8 7fbd ccbc 44bc f763 e23d
00000190: 0027 6a3d 433d 0ebe 0f1e cebc 3f72 5cbd
000001a0: 6212 823d 509e b73d 30d0 9bbc 5a9a 9e3d
000001b0: 5e32 993b aaa1 caba fcbc 84bd 4e00 373e
000001c0: e57c 183d e5c1 47bd e8c1 413d a4f1 843c
000001d0: 5045 ce3d 513c 403d 07b0 38bd ddb0 6dbd
000001e0: fe3d c43c 1ab7 f2bd daf7 08be f9dc 103d
000001f0: e0a8 b93d 4de4 aabd c36c ba3c 8b1f adbd
00000200: 5b83 d8bd 9024 01bd cd96 ef3d 8b09 37be
00000210: c9db c53d 8925 4dbd a00c 363d 29c4 a43d
00000220: 3bd9 d9bd dc36 afbd 9927 67ba 365e 1abe
00000230: 2fe1 aebb 84a6 91bc 3d29 96bc 1c29 88bd
00000240: 302c 21bd ce8a 8dbc 9469 aebd 12ff ecbd
00000250: d93e cfbc 5c5c 4d3d 381a 03bb 6668 3cbd
00000260: 977b e4bd db5f b3bd fafe 95bb 0f1d 97bc
00000270: 4acf bb3d 7fc6 7b3d e8e3 98bc 8a42 ce3d
00000280: 713c e9bc 69f4 1b3d 890d 193d 7e4c e9bc
00000290: 6694 61bc f0d4 8abb 698c 333d 7706 723d
000002a0: fd24 c0ba abf1 bf3d 89e7 de3c 27ce 52be
000002b0: 38d2 95be 3ae8 a3be 8f21 d3bd 8caf 1fbf
000002c0: 88e8 f0be c542 fcbd f5c9 f5be b31f 00bf
000002d0: 8473 3e3d dd92 f6bc a66b 893d c401 1abd
000002e0: 354b f23c 3fc8 893d c0f0 f13d c03b 39bd
000002f0: cac7 ba3c 46c6 4d3b ebaf 5d3d d807 97bd
00000300: 1cc9 22bd f9a4 563c c8fa de3d c10b 503d
00000310: a1b0 acbd b98f f8bd 7f70 b1bd 17ec 653d
00000320: 1897 c53c 947b 153e 0288 a0bd 415e e9bd
00000330: 13ce d7bd 0271 b33c 9e1c c7bb c26c 13bd
00000340: 2d2b 3dbd 145d 1cbe 2e8d d9bd 0d4d 81be
00000350: c551 74be 1dd0 81bd 2332 21be 1e81 96be
00000360: 1a1b 84bd a265 cabd 5b7b f0bb b4e2 b13d
00000370: 16a5 a1bd aae2 6c3d 66a1 3d3d 1cd8 dabd
00000380: 4fad 0cbe 6fc8 7e3d b1e3 4fbc 0051 2fbe
00000390: 18b6 c73d 7ceb 963c 3191 34be 418e 9abc
000003a0: d26e fd3c ec2b 86bc ab2f 01bd ae95 f33c
000003b0: c4c8 513d 64ee d8bb 62c0 613c c806 8c3d
000003c0: 64be 86bd f9ae 803d c124 083b 937e d2bc
000003d0: 699e 36bd 9807 a43d d9f7 80bd f7ef 953d
000003e0: 6bb3 363d f615 9ebc 313f a8bc 8238 9fbd
000003f0: 5518 0c3e b923 9e3d a185 9abd ebcb 2d3e
-0.02322329 0.06024863 -0.13726988 -0.040806063 -0.014191872 0.074014634 -0.053328376 0.114364214
0.03273723 0.030802853 0.086153544 -0.06384647 -0.10863315 0.11545568 -0.012521125 -0.035180334
0.1790713 0.0479256 0.08524727 -0.085734755 -0.1326617 0.075298354 -0.21220349 -0.27961943
-0.06874773 -0.12261759 -0.0017619842 0.061109863 0.20869125 0.24601412 0.25812286 0.44421333
0.35146233 0.41091815 0.44880036 0.34097043 0.049273845 -0.07506972 -0.012074678 -0.039431825
0.122353725 0.068088256 -0.15234308 -0.008704656 -0.017567325 -0.14462188 -0.13881081 0.111389786
-0.031279407 -0.022337416 -0.14490466 -0.041139323 -0.024659786 0.09418959 0.037809033 -0.07976738
-0.011563445 -0.057015296 0.024498872 -0.04093514 -0.057706837 -0.023505805 -0.05028943 -0.03792503
-0.10127514 -0.114176504 0.06305721 -0.1648604 -0.021388825 -0.005387295 -0.07311051 0.08925113
0.1586497 -0.076046355 -0.11891819 0.14710921 -0.074392565 0.008175539 0.0131388055 -0.020820795
-0.03170562 0.14055933 -0.14005259 -0.05674589 0.06820249 0.09986709 0.0067198616 0.005049534
-0.032444503 0.025166476 0.17473015 -0.07372766 0.19156131 -0.047223322 0.11911884 -0.10090777
0.08952885 -0.062477317 -0.012007903 0.11054223 0.0571661 -0.13890557 -0.025160817 -0.05381989
0.063511625 0.089657426 -0.01902017 0.07744284 0.0046751937 -0.0015459557 -0.064813584 0.1787121
0.037228484 -0.048768897 0.047304064 0.016228504 0.10071814 0.046932522 -0.045089748 -0.058029998
0.023955341 -0.1185133 -0.13375798 0.035366986 0.090654135 -0.08344326 0.02275694 -0.08453282
-0.10571929 -0.03152901 0.11698685 -0.17874734 0.09661061 -0.050084624 0.044445634 0.08045227
-0.106371365 -0.085553855 -0.0008817851 -0.15075001 -0.0053369026 -0.017779596 -0.01833021 -0.06648466
-0.03934878 -0.017278101 -0.08516231 -0.11572088 -0.025298523 0.05013691 -0.0020004641 -0.045998
-0.111563854 -0.08758517 -0.0045775147 -0.018446473 0.091703966 0.061468598 -0.018663362 0.10071285
-0.028471204 0.038074885 0.037366424 -0.028478857 -0.013768291 -0.00423681 0.043835077 0.059088197
-0.0014659461 0.093722664 0.027210014 -0.20586453 -0.29261947 -0.32013112 -0.10309135 -0.6237724
-0.47052407 -0.12317423 -0.48005643 -0.5004837 0.046496883 -0.030099327 0.067099854 -0.03759934
0.029576877 0.06727647 0.118134975 -0.045222998 0.022800345 0.0031398698 0.054122847 -0.07374543
-0.039742574 0.013100856 0.108876765 0.05079246 -0.08432127 -0.12136788 -0.08664035 0.056133356
0.024119899 0.14597923 -0.078384414 -0.11394931 -0.105373524 0.021904472 -0.0060764095 -0.03599239
-0.046183754 -0.15269881 -0.10622631 -0.25254098 -0.23859318 -0.063385226 -0.15741782 -0.29395384
-0.06450482 -0.09882666 -0.007338924 0.08685818 -0.07892816 0.05783335 0.0462965 -0.10685751
-0.13737987 0.062202867 -0.012688563 -0.17120743 0.097515285 0.018422835 -0.17633511 -0.01886666
0.030936632 -0.016378365 -0.0315396 0.029734459 0.051216856 -0.0066202153 0.013778778 0.06837231
-0.06579283 0.062833734 0.002077386 -0.02569512 -0.044584665 0.08009261 -0.06297273 0.0732116
0.0446047 -0.019297581 -0.020537945 -0.0777445 0.13681157 0.07721657 -0.07545019 0.1697232

conv2.bias f4 [16]
00000000: 2b81 583b 0b8e f83c 7d51 f83d 1ddc a9bd
00000010: df8f a13d dca7 0cbd a7a9 ea3c 207b 123c
00000020: 5438 e83c 8c13 6c3d 485d 60bd 222f c8bd
00000030: 4632 b53d 66af 27bd c4bf 2e3d 6734 d1bd
0.0033035974 0.030341169 0.12124918 -0.082939364 0.07888769 -0.03433977 0.02864535 0.008940488
0.028347172 0.05763583 -0.05477646 -0.09774615 0.088474795 -0.040938757 0.04266335 -0.10215073

conv3.weight f4 [32, 16, 3, 3]
00000000: 8ff5 f63d d50b 5c3c 6b90 d53d 6751 72bc
00000010: 61b6 2e3d cf35 a93c 588c d73c 85e8 2f3d
00000020: 701d 61bc 0a47 31bd b9dc 8a3d d175 ee3d
00000030: dec2 3f3c cbd1 0bbe 2909 6cbd a2a1 1bbe
00000040: b875 b8bd 8d3f 6dbd 2557 9e3d 891b 143d
00000050: 1a92 83bd b43c 93bd c32e d6bd e473 b93b
00000060: 0dfe 92bd def2 c1bb 08e2 bdbd 175d 34bd
00000070: 9b63 013e 9e8f 403d df93 bf3c 6b74 933b
00000080: 5e96 003d 1335 0fbe 41d9 42be de94 d2bb
00000090: 3beb 393b e3fa a83d faa5 923d 997a 733d
000000a0: 6d3b 22bd af81 f5b9 e386 233d 85e8 8a3c
000000b0: 81ca ae3c 22ed ad3b 8c85 af3d 8449 df3d
000000c0: 9ac9 673d bfcf ae3d 5c51 ca3d 3d49 08bd
000000d0: 45dc 4abd 7377 063c 8162 26bd 1138 55bd
000000e0: 413e dabd e210 98bd e5a9 74be a140 38be
000000f0: ac6c 33be 13e6 35be fca3 28be dda1 46bc
00000100: 397d cf3d e0b2 3c3e 2b3f 423d 1820 12bc
00000110: d131 5eb9 c523 81bc 3958 04bd c8c5 c7bd
00000120: 53e2 0cbe 61a1 d6bd bada 47bd dda6 0bbe
00000130: 1f79 a9bd 22f2 12be 8d46 2dbc ab00 1dbe
00000140: a058 b9bd 9a56 313d ef21 ebbb 9eca f739
00000150: b73d 223d 48fa b3bd 0ae4 80bd 3eb9 f8bc
00000160: 564e babd 969e f6bd bad4 803d cfed 903d
00000170: 35f6 4abc b2ac f13c f9b8 fcbc 13f1 723d
00000180: bcca 04be 44e6 ccbd 7e72 a43d b0f4 88ba
00000190: a8d2 54bd 3e41 643d 944e 1ebd 3408 4c3d
000001a0: 2a98 26bd fe21 703d 72c3 df3c 348d 823c
000001b0: abf7 323d f8db a83c 998b f13c bc7d f5bc
000001c0: 472c f63c 4462 a83d 9bc6 943d a65f 3b3d
000001d0: 29b4 cd3c bb61 92bd 6034 a7bd 711a 22be
000001e0: 86d4 0ebe 20c1 56be c37a 01be bab7 26be
000001f0: 9ba1 24be 253d f0bd aa22 e83c fcbf c43d
00000200: fd99 c43c 54eb 81bc 2d7a 0dbc c164 f0bc
00000210: 66b5 eabd 926d dbbc 4ab9 a3bc 93ec 473d
00000220: 0d87 b83c c516 cf3c 0d35 ea3c c3e7 a43c
00000230: 878c 9f3d ee58 ca3d 8e17 2e3d ed2d 433d
00000240: a59c a83d a92c 233c 34e7 783d e8ad c8ba
00000250: 96f9 ae3c 2611 4c3d b0b3 a63d 0d9a 0fba
00000260: 2a75 803d 9421 1f3e 6244 613e 023c 1a3e
00000270: d467 eebc cd69 e03d 134b 643d 11c7 b03d
00000280: bf0b e23d 7454 ca3c 04d6 9f3d ead7 0fbc
00000290: 187f aa3b 5510 5fbd 8bff 9c3d fabc 803c
000002a0: f5e0 983d 6617 0d3b 42e9 563d 8181 4b3e
000002b0: 2172 0b3e 0158 0f3e 4692 f93d 5143 173e
000002c0: 425a f13d 4e4d 393e 0e73 c43d 8fcb 17bc
000002d0: 4937 dd3d 44bd ef3c 92e4 09bd 7df3 62bb
000002e0: d7bc 11bd adc2 ecbd 819e 9e3d ae06 eabd
000002f0: e10f 71bb f2a5 a33d a614 3ebc a83f 693d
00000300: 80b8 05bd 52f2 7f3d 5963 a7bd b829 07bd
00000310: bab9 443d a7f2 873c 3114 983d 5cf8 1e3d
00000320: 1a01 1cbd 8404 ddbd e37d b2bd e0fb c7bd
00000330: 3ee6 06be 5d00 10be 38cd 05be 06a5 c43d
00000340: 59f8 a13b e4fe fd3d 2df0 8b3c 486a ea3b
00000350: 0217 c93d 1f32 233d 93c4 753c cff9 063d
00000360: 82d5 843d 73e9 8a3d aff5 aebd 71fe 233d
00000370: d6ab 28bd a6bd cabd 3e9d 8c3d 8ff3 1a3c
00000380: 144f 013d 27d8 843d 67dc dd3a e758 fa3d
00000390: c4d6 8e3d e430 9e3d 144a 6a3d da52 8a3d
000003a0: 0c2e d73d 9a90 223d 138b 813d d147 42bd
000003b0: bd99 0cbd 5d38 333c 7ecf cabc cea9 28bd
000003c0: 13ac 113d bb7b ebbc a206 b7bd c356 773c
000003d0: 1c9e 5ebd eea6 2abc 3e0f 38bd 70ce e5bd
000003e0: 8419 b0bb 6685 bfbd ed22 91bd b988 b13d
000003f0: e00a aa3d fcfb 7d3d 35ca d73b 37c9 aa3d
0.12058555 0.013430555 0.10427936 -0.014789916 0.0426544 0.02065554 0.026312038 0.042946357
-0.013739929 -0.04328064 0.06780381 0.116435654 0.011704175 -0.13654248 -0.057625923 -0.15198377
-0.09006828 -0.057921935 0.07731465 0.036159072 -0.06424351 -0.071893126 -0.10458138 0.005659567
-0.071773626 -0.0059188446 -0.09271628 -0.04403409 0.12635653 0.047011964 0.02338594 0.004499962
0.0313934 -0.1398509 -0.19028188 -0.0064264378 0.0028368968 0.08250978 0.07160564 0.05944309
-0.039607454 -0.00046826663 0.03992356 0.016956577 0.021336796 0.0053078094 0.08570394 0.10902694
0.056588747 0.08535718 0.09878799 -0.03327297 -0.04952647 0.00820719 -0.040621284 -0.052055422
-0.10656405 -0.07425095 -0.23892935 -0.17993404 -0.17521924 -0.17763548 -0.16468805 -0.012123552
0.10131306 0.1842761 0.047423523 -0.008918785 -0.00021190128 -0.015764127 -0.0323107 -0.09754521
-0.13758211 -0.10479999 -0.04879258 -0.13637872 -0.08275055 -0.14350179 -0.010575903 -0.15332286
-0.09050107 0.04329548 -0.007175676 0.00047262473 0.039609637 -0.08787972 -0.06293495 -0.030361768
-0.09096973 -0.120419666 0.06290574 0.070766084 -0.012387802 0.029501293 -0.03084992 0.059311938
-0.12967962 -0.10004857 0.0802965 -0.0010448899 -0.05195871 0.055726282 -0.038649157 0.04981251
-0.04067246 0.058626167 0.027314875 0.015936472 0.043693226 0.020612702 0.02948551 -0.029967181
0.03005041 0.08221868 0.072644435 0.045745514 0.025110321 -0.07147547 -0.081642866 -0.15830399
-0.13948259 -0.20972109 -0.12644486 -0.16281024 -0.16077273 -0.117304124 0.028336842 0.096069306
0.023999209 -0.015859284 -0.008635086 -0.029344918 -0.1146038 -0.026785646 -0.019985814 0.0488096
0.022525335 0.025279412 0.02858975 0.020130044 0.07790475 0.09880243 0.042502932 0.04765122
0.082330026 0.009959378 0.060767367 -0.0015310617 0.021359246 0.04982104 0.081397414 -0.00054779724
0.06272347 0.15540153 0.21998742 0.15061954 -0.029102243 0.1095768 0.05573566 0.08631719
0.11037397 0.024698474 0.07804492 -0.008779505 0.005203139 -0.054458935 0.076659285 0.015715111
0.07464782 0.002152884 0.052468546 0.1987362 0.13617755 0.13998415 0.121861026 0.14771773
0.117847934 0.18095896 0.095922574 -0.009264841 0.108015604 0.029265054 -0.033665247 -0.0034629994
-0.035580482 -0.11560569 0.07745076 -0.11427055 -0.0036783146 0.07990636 -0.011601603 0.056945473
-0.032646656 0.062486954 -0.08173246 -0.03299877 0.048028685 0.016595198 0.07425726 0.038811073
-0.038086988 -0.10791877 -0.08715417 -0.09764838 -0.13173768 -0.14062639 -0.13066566 0.09601788
0.0049429354 0.12402132 0.017082298 0.007153783 0.098188415 0.03984272 0.01500048 0.03295308
0.06486036 0.06782808 -0.08542954 0.040037576 -0.0411795 -0.09899454 0.06865929 0.009457483
0.031569555 0.0648654 0.0016926647 0.12223988 0.06974557 0.07724169 0.057199553 0.06754084
0.105068296 0.039688684 0.063253544 -0.04743177 -0.034326304 0.010938731 -0.024757143 -0.041177563
0.035564493 -0.028745523 -0.08936812 0.015096369 -0.054350004 -0.010415776 -0.04493641 -0.112210155
-0.0053741354 -0.093516156 -0.0708674 0.08668656 0.083028555 0.06200789 0.0065853843 0.0833916

conv3.bias f4 [32]
00000000: 8c1a 103d 5873 64bb 04fa e93c 42f1 683d
00000010: d0f8 82bd 4ea7 a73b 3bf6 9dbd 6370 d13a
00000020: 7670 5fbd b105 6abc af09 633d c804 edbc
00000030: a8bf 053c f129 4d3d 98cf 64bb dbd6 fa3c
00000040: 4388 1ebc 4135 cd3c f683 d1bb 53b0 38bc
00000050: 1164 abbd e5d6 803c 586a 093c 3fcf 9cbd
00000060: 4aa1 963d 0a56 62bd 6188 283d b1ce 823c
00000070: 1c32 62bd 80d9 943d 53fe 593d e093 913c
0.035181567 -0.003485879 0.0285616 0.056870706 -0.063951135 0.00511638 -0.0771298 0.0015978928
-0.05455061 -0.0142835835 0.055429157 -0.028932944 0.00816337 0.050088827 -0.0034913775 0.03062003
-0.009676042 0.025049808 -0.006393905 -0.011272508 -0.083686955 0.01572747 0.008387171 -0.076567166
0.07354982 -0.055257834 0.041145686 0.015967699 -0.05522357 0.07268047 0.053221058 0.017770708

convt3.weight f4 [32, 16, 3, 3]
00000000: b58f 4a3c 4fe0 fabd 094f 19bc 680e b5bd
00000010: 28ca 0ebd 4827 cebc 923e 133d 4458 6f3c
00000020: d873 403d f702 da3d 3265 f4bc 6f12 1a3c
00000030: be48 c13d 2d0f 08bd 5a93 46bd a5b4 023e
00000040: 0b86 043e 614c cd3d 87b2 023e f906 983d
00000050: 80b3 da3c 7bbe 2abb 1ffa e53d f506 db3d
00000060: 25b7 9e3c bada 82bc 2343 b63d 5dc5 2d3e
00000070: 9c84 b63d e5bf 123e 74a6 113e 32c0 1e3e
00000080: de31 293e 7584 603e 48d6 523e b8b1 bb3d
00000090: 6911 a83d 69e4 e13c bf6d a03d 8fbd 0abb
000000a0: fbf3 a8ba 3174 eb3b a982 c2bd 9c88 15bc
000000b0: db25 b6bd cbc5 353d 4661 6ebd faac 9f3d
000000c0: ba78 3b3d e1bb 683d a588 d43d b830 b33d
000000d0: edf4 9d3d a50a d03c e305 dfbc 38f8 00bd
000000e0: bbfa 7abc 98ac ddbd 3605 e13c 0ac2 6fbd
000000f0: 7c3c 0fbe ce38 fdbd 9f0d bbbd 2784 c8bd
00000100: e8e3 c5bd 0daa 26bb 99da fcbd 0211 bcbd
00000110: d0c3 5ebd 4c02 1bbd f5d4 b3bc ab2b 06be
00000120: 3bbb 163d 9d33 21bc 1872 2e3d f210 05bd
00000130: db79 eebc 8c82 5abd 0339 ce3c d30c 39bd
00000140: 028f 93bc 580a 92bb 2bbf 93bb 11f3 80bd
00000150: 29ae 99bc bde5 a5bc 1a48 95bd 7a02 f9bc
00000160: cb6a 0f3d 5229 7ebd 5f8b 1ebd 2e41 843d
00000170: 1831 473d 847f 92bc 9e52 40bd 0a9c bc3d
00000180: d01a 753d 3887 073e a72b 063e 084d cabd
00000190: 7a50 2ebd 7ad3 9bbd 915a 1c3d 603e 0cbd
000001a0: d390 243b 2eb1 95bd c7e5 d7bc 5ee0 d5bc
000001b0: 8036 c13a 2f47 353c c97e 5dbd c39f 91bd
000001c0: a189 58bd b715 dfbd 5560 ebbc c8bc e2bd
000001d0: de6e 0ebe b32f aa3d c60c 88bd c8a3 8cbc
000001e0: 74ba 833d d294 a53d 86ec e53d 22bf 3f3d
000001f0: 278e 493d 70c3 be3c 1de2 faba 16dd d73d
00000200: ebf0 83bc c926 053e 43a1 fa3c 353e f83c
00000210: 3c49 f03d 1095 9d3c 1c7d 963d efde 863c
00000220: d14b 413c a6c6 9b3c 6533 9dbd e292 373d
00000230: 9167 003c fd61 c03b b10a 043d 8628 efbd
00000240: 6dcb dfbc 6271 c03d 1cea 9fbc e494 623d
00000250: 6742 e43c f195 ed3c be7c 9e3d 4769 c23d
00000260: 8c7b bcbc 5794 50bd 278c 3cbd 1f50 8d3b
00000270: 7a9c 143c 35b4 063d d1a4 9b3d 7826 903d
00000280: 0724 883b de88 143d 91da 98bc 1d72 aebd
00000290: 5720 07be 0d7b 85bd 5c14 99bd 77ca 7dbd
000002a0: 7ecc 02be 065c 01bd cd40 a3bd 9386 c03c
000002b0: 93a8 d2bd be75 693d 576a 353e 6f9e 973d
000002c0: 5064 8a3d df58 4b3e 2260 68bc c74c 963d
000002d0: 9e16 0e3d 8c6e cbbd f811 e3bd 7f05 a9bc
000002e0: a41f a6bb 3118 a8bd 7106 9bbd 5375 543c
000002f0: 6f16 35be 2b14 103d 8d56 8cbd 96fa 9bbd
00000300: 40e0 9a3d 66ab 9e3d ce22 123c 49ff 82bc
00000310: f254 80bc e3ea bf3c a26c 043e 5485 18bd
00000320: 91b9 01bd 9d34 0c3d 9179 003e 84c9 d83b
00000330: c2d2 bc3d 5892 733d 0bb7 55bd 089d 2abd
00000340: 625c 483c 4a01 813b ed90 603c ac70 da3c
00000350: 0e31 f33c e624 f43c 7801 e93b d099 8f3d
00000360: 1cc8 43bc 86d2 f0bc 2ffa ccbd 96bf 11bd
00000370: 503a 893b a673 a1bd dc82 58bd a8cf a1bd
00000380: 4fe2 d0bc 30d0 36bd 9c16 6f3d 7e85 0d3c
00000390: bc4f a23d 79d3 273e 9d02 af3d fa3a a4ba
000003a0: 74ee 8c3d 9ead 1e3d 7bd1 5ebd 4e32 11bd
000003b0: d78a edbc f00b 0b3d 4974 613d 2522 fabc
000003c0: 2606 703d 1c74 fb3c c1b4 303d d0d0 26bd
000003d0: 281b 963d 949b 573d bcef 22bd f1e6 b63c
000003e0: a3e4 db3d bd6d c0bc dfa0 c2bb fcaf 873c
000003f0: 99a7 473d 1856 ac3b 04bc 02be 030a e03b
0.012363364 -0.12249815 -0.009357222 -0.088406384 -0.03486076 -0.025165215 0.035948344 0.0146084465
0.046985477 0.10645097 -0.02983341 0.009403809 0.094377026 -0.033217598 -0.04848037 0.12764223
0.12941758 0.10024334 0.12763415 0.07423205 0.02669692 -0.0026053477 0.112293474 0.10694686
0.01937444 -0.015973438 0.08899524 0.1696982 0.08912012 0.14331014 0.14223653 0.15503004
0.16522929 0.21925528 0.20589554 0.091647565 0.08206446 0.027574735 0.078334324 -0.0021170115
-0.0012890095 0.007185482 -0.09497578 -0.0091268085 -0.08893939 0.044378083 -0.058198236 0.077966645
0.04576943 0.0568198 0.103776254 0.08749527 0.077127315 0.0253957 -0.027224487 -0.03148672
-0.015318568 -0.10823935 0.027468305 -0.05853466 -0.13987917 -0.1236435 -0.091334574 -0.09790831
-0.0966261 -0.0025430948 -0.12346382 -0.091829315 -0.05438596 -0.037843987 -0.021952132 -0.13102596
0.03679965 -0.009838966 0.042589277 -0.032486863 -0.02911084 -0.053347155 0.02517367 -0.045178246
-0.018012527 -0.0044567995 -0.004508873 -0.06296361 -0.018759804 -0.02025115 -0.07289143 -0.030396689
0.035013955 -0.062051125 -0.038707133 0.064577445 0.048630804 -0.01788307 -0.04695379 0.092094496
0.059840024 0.13235176 0.1310259 -0.09877974 -0.042557217 -0.07608695 0.03817231 -0.034239173
0.0025110736 -0.07309185 -0.026354684 -0.026107963 0.0014740974 0.011064335 -0.05407599 -0.0711055
-0.05286563 -0.10892814 -0.028732458 -0.110711634 -0.1390948 0.08309879 -0.06643061 -0.01716794
0.064320475 0.08085026 0.11226754 0.046813138 0.049207833 0.023286551 -0.0019140873 0.10540216
-0.01610609 0.13003077 0.030594474 0.0303031 0.11732718 0.019236118 0.073480815 0.016463725
0.011797861 0.019015621 -0.07675818 0.044817813 0.007837192 0.005871056 0.03223676 -0.11677651
-0.02731868 0.09396626 -0.019520812 0.055317774 0.027863694 0.029002162 0.077386364 0.09492736
-0.02300813 -0.050922718 -0.046032097 0.0043125297 0.00907051 0.032886703 0.075997956 0.07038587
0.0041546854 0.03626334 -0.018658908 -0.08517859 -0.1319593 -0.06517611 -0.07474586 -0.061960664
-0.1277332 -0.0315819 -0.07971344 0.02350167 -0.10286059 0.056997053 0.17716347 0.07403266
0.06757414 0.1985812 -0.014183076 0.07338863 0.03468954 -0.099331945 -0.11087412 -0.020632504
-0.00506969 -0.08207739 -0.07569588 0.012967425 -0.17684339 0.035175484 -0.06852446 -0.07616155
0.075623035 0.077475354 0.008919431 -0.01599087 -0.015665505 0.023427432 0.12932065 -0.037236527
-0.03167111 0.034229863 0.12546374 0.0066158194 0.09219886 0.059465736 -0.052176517 -0.041653663
0.012229057 0.0039369212 0.013706428 0.026665054 0.029686477 0.02980275 0.007110771 0.07011759
-0.011949565 -0.02939726 -0.10008656 -0.0355831 0.0041878596 -0.07883386 -0.052859172 -0.079009354
-0.025498537 -0.044632137 0.05837117 0.008637784 0.079253644 0.16389264 0.0854542 -0.0012529783
0.06881419 0.038739793 -0.054398995 -0.035448365 -0.028996868 0.03394693 0.05504254 -0.03053386
0.058599614 0.030695014 0.04314113 -0.040726483 0.073293984 0.052638605 -0.03977941 0.022326918
0.10736968 -0.023489827 -0.0059395875 0.016563408 0.048743818 0.0052592866 -0.12767035 0.006837131

convt3.bias f4 [16]
00000000: 8da5 873d 47c9 0f3d 821c a13c 0655 193d
00000010: c860 9cba 7d02 b43b c326 a8bd 9966 98bd
00000020: 96e1 053c fd0a 9b3d f092 f23c 75c2 223d
00000030: c872 8cbc ef6f 58bd fc72 9fbd 643a 81bd
0.06623373 0.035104062 0.019666914 0.0374346 -0.0011930699 0.0054934607 -0.08210518 -0.07441444
0.00817146 0.07570455 0.02961108 0.03973623 -0.017144576 -0.052841123 -0.077856034 -0.06309965

convt2.weight f4 [16, 8, 3, 3]
00000000: 65f3 11be b1f8 18be 6c23 98bd 7fc6 52be
00000010: 815f e5bd 3776 dd3d fc6e 35be 1da4 a3bd
00000020: 8a31 edbb dc00 c83d 02dc 973d 04d0 bfbd
00000030: 7e11 c83d aa7a 0a3c 8727 623d 647d a2bd
00000040: 0a66 98bd 925f bdbd 4d54 9dbd 22df 94bd
00000050: 34d6 593d b1b6 6dbd 1577 e0bc a01e c5bd
00000060: 7693 0dbd 19c4 ddba 6c76 d5bd 269e 2b3a
00000070: 7b97 17be a1b9 a2bd 6e77 f4bd 9475 5bbd
00000080: a02e a1bd 8060 01bd 582e ebbc 8800 fabd
00000090: 3629 58bd ea15 76bd 42e8 b83d 52ea ee3d
000000a0: fcc6 6abd 4528 b53d b2de cd3d 8a76 5c3d
000000b0: 4e7d a4bc 322d 413d 5fbf 34be 5e4c 22bd
000000c0: 6398 1dbe f9f5 b4bd a00e 4bbe 284d fb3c
000000d0: e630 f4bc 9679 19be fbdb b9bd 3c46 383d
000000e0: 58b3 7dbd a080 47bd bd0f ab3b 031c d53d
000000f0: 4c93 a8bd f105 8abd 0eb0 153c 2c82 0f3d
00000100: 7d5c 923d e0f7 95bd 0c41 8ebc a3ec c83d
00000110: c76f 953c 85ad 62bd eb02 993d 9c80 d9bd
00000120: d669 23bd 22ea 493a 3b9b 26bc 8c41 12bd
00000130: 7fd5 fdbd 19cb 1a3e 3f27 c23b 7731 c23c
00000140: dae6 153e 2ddf 6cbc 63e2 533c 7c4b 53bd
00000150: d026 013e c637 6a3d 094d 10bd 3d6b cc3d
00000160: ccea b63c 2ff9 bc3c 84b2 c3bd b80e 17bc
00000170: ec6e 9bbd 2e9c 70bd 51f9 d13d 5bbe 3e3d
00000180: fdc0 353d 996d 0b3d 51c1 ac3d 80b9 893d
00000190: 3f4c 913d c112 2abc 696c 5fbd ce26 0bbe
000001a0: 16a6 0fbe 2b7d 21bd b6be 683c a7ec c3bd
000001b0: 437a d9bc cade fdbc 7e39 adbc d7a4 003d
000001c0: f2c3 1cbd 5590 9c3d eeb9 f83d 7b9c d2bc
000001d0: 1741 6a3c 6e3f 9d3b 5e28 8e3d c978 5cbc
000001e0: a199 913d 5ea6 babc 2264 24bd 206e 163c
000001f0: b07d 91bd 098b 39bd 1985 df3d bf56 79bb
00000200: 337c 0c3d 04ff a13d 8be1 92bd 32fd a7bd
00000210: 2f78 73bd 2322 453b 94fa 9fbd 817f 9abd
00000220: 0f3e bcbd 3996 cabd 2526 653d 4610 2c3d
00000230: da9d 8bbd f83e bebc ffbc 633b 68cf 563d
00000240: 281f 31be ba32 7bbd 4591 0fbe 0f46 853d
00000250: 9fa0 4a3c 7313 91bd 03ba 31bc 5015 443c
00000260: 49ab 8ebc 3a08 953d 7935 813d 7a24 913d
00000270: 77e8 ee3c 3d3e 333e 4758 3d3e ae1b bb3d
00000280: 83cc 74bc 0473 d23d a11f 673c 926a 1a3e
00000290: bbfe 353d b71b f93d 7c8c 9d3d 0f79 273e
000002a0: cdc1 0d3e 0938 0f3e 8d56 eb3d 24f4 05be
000002b0: 765a f7bd 031b 943d 7a85 e1b9 b18c 7fbc
000002c0: 1270 06be 1c90 1dbd 36bb 59bd e9e0 acbd
000002d0: 7135 e63d ed8a 633e bd6c 533d de91 813c
000002e0: 4167 973d c748 233c 910b e13d 88ba 493e
000002f0: 9b07 ff3d 70f5 30be 9a9a 61bd 5e85 a6bd
00000300: faf6 bfbd 13ff 9b3d 0a9c e6bd 63b6 a7bd
00000310: e917 e9bd 679e 01bc da6c 193d 5c41 8a3e
00000320: d93d 0b3e bb2b cc3d 5f1c af3d 7921 5c3e
00000330: a94e 653d 5e06 863d 8051 343d ed11 d83d
00000340: 878a e0bb a9ce 853c 1b2e 82bd 1604 d2bc
00000350: 1fc6 dc3d 0b44 9b3d 803f c53d 518b 493d
00000360: 3dfc a93d 5f89 13be c15a c2bd 2c13 7b3d
00000370: edb0 63be 9ee4 243d b3e6 d93d 0370 afbd
00000380: d4eb a4bb 648e fdbc 256d b13c 34ab 78bc
00000390: 39a2 d73c 60be d13c 0d80 533d aa6d 053e
000003a0: d5dd f438 609a 1c3d 9485 c7bd 1ef6 073d
000003b0: 388f fcbc 60ba 693c 1cec 3dbd e05c 63bd
000003c0: 2135 1abd 8dc5 5cbd 6e90 6abd 1a60 273d
000003d0: ae05 00be e0bd ebbd 13b6 09be 009d 0dbd
000003e0: 165a 64bd c8fa 483d d64d 19be dad6 22be
000003f0: 6e05 ae3d 132f 543d 0b32 a2bd 7533 89bd
-0.14253004 -0.14938618 -0.07428631 -0.20583533 -0.111998565 0.10813563 -0.17718118 -0.079902865
-0.0072385715 0.09765789 0.0741501 -0.09365848 0.09768961 0.008452097 0.055213477 -0.079340726
-0.074413374 -0.09246744 -0.07682095 -0.07269122 0.053182796 -0.058035556 -0.027400533 -0.09624982
-0.034564458 -0.0016919404 -0.10422978 0.0006546698 -0.14803879 -0.07945562 -0.11936842 -0.053578928
-0.07870221 -0.03158617 -0.028708622 -0.122071326 -0.052773677 -0.060079493 0.09028675 0.11665787
-0.057318673 0.088455714 0.100522414 0.053823985 -0.020079281 0.047162242 -0.17651127 -0.03962361
-0.15390162 -0.08835978 -0.19829798 0.03067644 -0.029808473 -0.14987788 -0.09075161 0.044988856
-0.061938614 -0.04870665 0.005220382 0.104057334 -0.0823122 -0.067394145 0.009136213 0.03503625
0.07146547 -0.07322669 -0.017365001 0.0981076 0.018241776 -0.055341262 0.0747126 -0.106202334
-0.039895855 0.000770243 -0.010168846 -0.03570704 -0.12394237 0.15116538 0.0059250887 0.023705227
0.14638844 -0.014457506 0.012932393 -0.05158566 0.12612462 0.057182096 -0.035229716 0.099813916
0.022328757 0.023068039 -0.095555335 -0.009219818 -0.07589516 -0.058742695 0.102526315 0.046568256
0.0443735 0.034040067 0.0843531 0.067248344 0.07094621 -0.010380448 -0.054546747 -0.13589022
-0.140282 -0.03942601 0.014205625 -0.09566622 -0.026547557 -0.030990023 -0.021145578 0.031407204
-0.038272806 0.07644717 0.12144838 -0.025709381 0.014297745 0.004798821 0.06941293 -0.013456532
0.071093805 -0.022784408 -0.040134557 0.009181529 -0.07104051 -0.04529861 0.10914058 -0.003804609
0.034298133 0.079099685 -0.07171925 -0.0820259 -0.059440788 0.0030080162 -0.07811466 -0.07543851
-0.09191524 -0.09891934 0.05594458 0.042007707 -0.06817217 -0.023223385 0.0034750102 0.05244389
-0.17297041 -0.061327673 -0.1402026 0.06507503 0.012367397 -0.07083788 -0.010847571 0.011967972
-0.01741566 0.0727696 0.06309027 0.070870355 0.029163582 0.17504211 0.18490706 0.09136139
-0.0149413375 0.10275844 0.014106662 0.15079716 0.044432383 0.12163489 0.07692811 0.16354774
0.1384346 0.1398622 0.114911176 -0.13081414 -0.12077801 0.072317146 -0.00043014792 -0.015597508
-0.13128689 -0.03846751 -0.053157054 -0.08441336 0.11240662 0.22220965 0.051617373 0.015816625
0.07392741 0.009966082 0.10988534 0.19700062 0.124526225 -0.17281127 -0.05507908 -0.081309065
-0.09373279 0.07617011 -0.11260231 -0.081890844 -0.113815136 -0.007911301 0.037457325 0.2700299
0.13597812 0.099692784 0.08550333 0.21497144 0.05598322 0.06544183 0.044023037 0.10550294
-0.0068524512 0.016333895 -0.0635645 -0.025636714 0.10779976 0.075813375 0.09631252 0.049205128
0.08300064 -0.14407872 -0.09489966 0.06129758 -0.2223546 0.04025709 0.106397055 -0.085662864
-0.0050329957 -0.030951686 0.02165849 -0.015177537 0.026322471 0.025603473 0.05163579 0.13030115
0.00011676146 0.03823316 -0.09742275 0.0331937 -0.03083001 0.014265627 -0.04636775 -0.055508494
-0.037648324 -0.053899337 -0.057266645 0.040863134 -0.12502167 -0.11510825 -0.13448362 -0.034573555
-0.055749975 0.04906729 -0.14971098 -0.15902272 0.084971294 0.051802706 -0.07919701 -0.06699268

convt2.bias f4 [8]
00000000: 3b65 b7bd b91d df3d 91be e2bc 1463 113d
00000010: 13de 90bd faba 7a3d ccbe 0f3e 1727 6d3d
-0.08954855 0.10894341 -0.02767876 0.03549488 -0.07073607 0.06121347 0.14037627 0.057898607

convt1.weight f4 [8, 1, 3, 3]
00000000: cf53 97be fba1 0c3e 4e77 483e 76de babe
00000010: 72e1 dabd af48 193e ab38 a0be 7986 89be
00000020: 4769 863e c55e fcbd 0ab7 483e a613 3b3e
00000030: adaa 6d3e b9b9 263e 0171 e1bd f579 2d3e
00000040: 2021 aabe 551e f2bc 9dc4 f1bd 40c7 0b3e
00000050: dd4b c63d c067 863d 84be 19be 9364 8cbd
00000060: 4507 5e3d 62b0 733d 2c7c 4c3e 91c5 88be
00000070: 805f 4e3d d9b1 803e 3f41 afbb d18d 38be
00000080: 6626 763e 63dd 143e cad9 f3bc fe4e 4d3e
00000090: 48c6 73be 2d69 d23d 5786 ff3d 34db a83e
000000a0: 4798 223d c3ab e3bc caaa 33be dbb2 9b3e
000000b0: 17f8 a73c 57a0 a33d e383 8fbe 87d9 88be
000000c0: 399d 0dbd 7ede 42be a7e9 98be 3b4a 2a3e
000000d0: b098 36be b9b1 42be 4d12 ffbd bc6d cdbe
000000e0: beb0 383d 38c3 62be c682 edbd 7358 94be
000000f0: f096 d7be 1d4e 06be 4890 a93d 6d2c ab3b
00000100: af13 37be 7fe8 a3be 3875 17be 5901 02be
00000110: e723 5fbe d3a0 593e e66f b8be 68cb 57be
-0.29556128 0.13733666 0.19576761 -0.3649785 -0.106875315 0.14969133 -0.31293234 -0.26860407
0.26252195 -0.12322763 0.19601074 0.18269214 0.23209639 0.16281785 -0.11007882 0.16941054
-0.33228397 -0.029555479 -0.11805079 0.13650227 0.096824385 0.065627575 -0.15014082 -0.068551205
0.05420615 0.059494384 0.19969243 -0.2671323 0.050384045 0.25135687 -0.005348354 -0.18022849
0.24038085 0.14537577 -0.029766936 0.20049664 -0.23806107 0.10273967 0.12476795 0.3297974
0.039696004 -0.027791863 -0.1754562 0.30409893 0.02050404 0.07989567 -0.2803031 -0.2672846
-0.034573767 -0.19030187 -0.29865763 0.16629879 -0.17831683 -0.19013108 -0.124546625 -0.40122783
0.04509043 -0.22144783 -0.11597209 -0.2897373 -0.42107344 -0.13115735 0.082794726 0.005223802
-0.17878602 -0.32013318 -0.14790809 -0.12695827 -0.2179104 0.21252756 -0.36022872 -0.21073687

bn1.weight f4 [8]
00000000: a69a 673f 6b08 5b3f 2228 7c3f 39f1 8e3f
00000010: 099f 6a3f f640 8b3f c888 813f 77d2 923f
0.9047035 0.8555972 0.9849874 1.1167365 0.9164892 1.08792 1.0119867 1.1470479

bn1.bias f4 [8]
00000000: a3c4 f2bd e1de eebd b4bd f5bc bd90 423d
00000010: 8e2e d8bd fb6a a33d ff5b d4be 3529 87bc
-0.11853912 -0.116636045 -0.029997684 0.047501314 -0.105557546 0.07979389 -0.41476437 -0.016499141

bn1.running_mean f4 [8]
00000000: 211e 09bf f8f4 cabe b90c 19bf b19e 3bbf
00000010: fd0d 21bf 3ada 2dbf 22c9 cf3f d0dc 573c
-0.535616 -0.3964002 -0.5978504 -0.7328902 -0.6291197 -0.6791111 1.6233256 0.013175204

bn1.running_var f4 [8]
00000000: 28c9 5d3f 6205 383f f4c0 b63e c0cd 2840
00000010: 3a11 373f 1272 333f 39c3 223f 327f 973f
0.86635065 0.71883214 0.35694087 2.637558 0.7151066 0.7009593 0.63579136 1.1835692

bn2.weight f4 [16]
00000000: 62e6 703f 5c07 593f dddb 803f 7a77 853f
00000010: b246 713f dda5 833f 7e84 903f d97a 893f
00000020: 52a3 843f be22 8c3f d544 6e3f b727 6f3f
00000030: a4de 943f 37a1 913f de95 643f db5c 5c3f
0.94101536 0.84776855 1.0067097 1.0427086 0.942485 1.0284992 1.1290433 1.0740615
1.0362341 1.0948102 0.9307378 0.93419975 1.1630445 1.1377324 0.8929118 0.86079186

bn2.bias f4 [16]
00000000: b626 193d 342b 1cbe 8a8f 32bd b03e d63d
00000010: 5110 653e c56a fcbd efdb a3bb fc38 adbc
00000020: e582 67bc 1dfc 21be 54a1 a9be d08d 4b3b
00000030: e1c4 3c3d 3c77 c6bc feb5 36be 2c45 15be
0.037390433 -0.15250856 -0.04359392 0.104611754 0.22369505 -0.12325052 -0.0050005834 -0.021145336
-0.014130329 -0.1581883 -0.33130896 0.0031059869 0.046086196 -0.024226777 -0.17842862 -0.14577168

bn2.running_mean f4 [16]
00000000: 9dc8 a73d 1e08 0dbe 3798 0fc0 1e8a 933e
00000010: 48f8 82bf 951c 1c40 1437 89bf 6e89 53bf
00000020: 2120 68bf b8c1 bdbe 2a59 6c3e 6808 5940
00000030: d6e1 75bf ea9c 6040 7e44 8cbe 4209 13bf
0.08192561 -0.13772628 -2.2436655 0.28816313 -1.023202 2.4392445 -1.0719934 -0.82631576
-0.90674025 -0.37061858 0.23080888 3.391138 -0.96047723 3.5095773 -0.27396005 -0.57436

bn2.running_var f4 [16]
00000000: 5387 9040 efde 8a40 e8cb 0541 dd90 7d40
00000010: 94f9 1041 cda8 ed40 55c6 ea41 2579 f140
00000020: 5680 3e41 7278 5240 afa2 c33f 528b 3540
00000030: a103 8f41 7314 0141 9d4f d540 8730 4741
4.516519 4.3397136 8.362282 3.9619668 9.060932 7.4268556 29.346842 7.546038
11.906332 3.2886014 1.5284022 2.8366284 17.876772 8.0674925 6.6659684 12.4493475

bn3.weight f4 [32]
00000000: e041 893f a721 463f 43a0 9f3f 1e3a 7e3f
00000010: 9dd5 813f 28b4 9f3f dac5 583f c19d a43f
00000020: c3fe b43f fedc 513f 3a20 2c3f f82a 763f
00000030: 0ced 9c3f 7cca 9e3f 3cae 4f3f 9ae0 653f
00000040: ff27 653f 0425 983f 1829 693f 9314 5a3f
00000050: 003c b33f b359 863f 4b2a 6f3f d07e 603f
00000060: 4460 763f d16a 643f fdd6 923f 627d 833f
00000070: ce88 5b3f bd18 613f f890 893f 7a8c b93f
1.0723228 0.773951 1.2470783 0.9930743 1.0143315 1.2476854 0.846769 1.2860643
1.4140247 0.8197783 0.67236674 0.96159315 1.2259841 1.2405543 0.81125236 0.8979584
0.89514154 1.1886296 0.9107833 0.85187644 1.4002686 1.0496124 0.9342391 0.876935
0.9624064 0.8922549 1.1471859 1.0272639 0.8575562 0.8792837 1.0747366 1.4495995

bn3.bias f4 [32]
00000000: 0911 363d e7bc b2be 1069 973d bb1c f2bd
00000010: b022 0ebd 012d e73c 8559 aebe 5a03 e9bc
00000020: a56f a53c 592d efbe 6ae6 8fbe 19b4 1fbe
00000030: ccc3 173d 4fe7 aa3a 6f62 15be adb7 78be
00000040: 60e5 4bbe e1de dd3c d412 b1be 608f 3abe
00000050: 1bd6 443c aa64 593e 6bdb 0fbe 85dd 6ebe
00000060: 55cb f7bd f45c 92be 969c 003e 60f1 53be
00000070: 52eb 70be efb7 87be c1ed 06be 5349 4bbc
0.04444984 -0.34909746 0.07393086 -0.11821886 -0.03470105 0.028219702 -0.34052673 -0.028443981
0.020194838 -0.46714285 -0.2810548 -0.15596046 0.03705196 0.0013038906 -0.1458833 -0.24288817
-0.19911718 0.027083816 -0.34584677 -0.18218756 0.012013937 0.21229807 -0.14048545 -0.2332669
-0.120993294 -0.28586543 0.12559733 -0.20697546 -0.23527268 -0.26507518 -0.13176633 -0.012407619

bn3.running_mean f4 [32]
00000000: 62a4 19bf e9ac c73e 7bd2 61be e57c aabf
00000010: 5d79 61bf 87b5 2fbf d0e5 8bbe b4b0 653f
00000020: 0412 003f c833 4a3f 457a 4e3d 2b55 283f
00000030: 0e04 303f 4533 fb3e e7d4 433f a71a 683f
00000040: 8b16 4a3f ff58 d63d 81df a2be 4395 9f3f
00000050: de9c 033f 6679 72bf 2a7f afbc 0742 f03e
00000060: acc6 853e 3678 3e3f 8f2b 06bf c730 90bc
00000070: 05a2 843e 6496 743e 192d b1bb 5a86 0e3f
-0.60016453 0.38999107 -0.22052948 -1.3319365 -0.8807581 -0.68636364 -0.2732377 0.8972275
0.5002749 0.7898526 0.050409574 0.65754956 0.68756187 0.49062553 0.7649674 0.9066567
0.7894065 0.104661934 -0.31811145 1.2467426 0.51411235 -0.9471649 -0.021422941 0.46925375
0.26128137 0.7440218 -0.52410215 -0.017601384 0.2590486 0.23885494 -0.0054069874 0.55673754

bn3.running_var f4 [32]
00000000: 5385 cb3f 93f8 b03f 11bc dd40 048a 0541
00000010: d422 423f 027c c640 f4ae 873f 1006 c540
00000020: 6e93 fe40 4e67 0341 0828 4f3f 3f92 0340
00000030: 4372 4140 be06 fd40 b4a8 8f3f e38d dc40
00000040: 3c42 2e40 9c51 c940 d8a9 9b3f 7f06 4541
00000050: 1535 a240 744e 0440 7f36 b83f 0cc3 823f
00000060: 1970 0640 34b6 c53f d414 1740 838b a03f
00000070: f4ed 1e40 ddfc 953f b55b 1d40 b4bf e040
1.5900062 1.3825859 6.9292073 8.346195 0.75834394 6.2026377 1.0600266 6.15699
7.955497 8.212721 0.8092046 2.0558012 3.022599 7.907073 1.1223359 6.89232
2.7227926 6.291212 1.2161207 12.314086 5.0689797 2.0672884 1.4391631 1.0215774
2.100592 1.5446229 2.3606462 1.2542576 2.4832735 1.1717793 2.4587224 7.0234013
