model.pth (torch, 56814 bytes, 23 tensors)

conv1.weight f4 [8, 1, 3, 3]
00000000: 3688 74bd 3feb a43e e006 cd3d 4063 07be
00000010: d6e9 c93c 181c 9b3e ac2a 8dbe 7333 15be
00000020: 239e 0c3e 535c 71be f676 80bd c347 0e3e
00000030: cb73 663d 4bac 4c3d 9b72 78be 20de 08bd
00000040: 1c9d 863e e0b9 143d 4bb0 8bbd ebbf 28be
00000050: ae2c 0b3e 461a ea3d 8b54 7fbe 809f d93d
00000060: 6bca d73c 7755 a23e e022 d63d d665 433c
00000070: 6be7 a83e 0bfa b9bd d667 453d 6b8a 893e
00000080: 5396 603e eb97 1dbe 3690 35bd 301f abbd
00000090: 72cd 97be be8c 7d3e 8233 823e 76e9 3d3d
000000a0: 6649 9f3e 0056 8a3b ab3d 6fbc 5b9c c8bd
000000b0: c613 223e 263e bc3d b64f 4dbd f683 9e3e
000000c0: db07 7b3e f641 5a3e f013 2b3e b6a2 4dbe
000000d0: 10e3 553e e075 883e 6cf6 903e 00e4 71bd
000000e0: 06fe 793e 202d 4a3e a858 80be 4035 46be
000000f0: 6b0d a23c 40ee dd3d 6b40 293d 4cbe 83be
00000100: 3e6f 483e ab90 0f3b 168d 9fbc 3e67 7a3e
00000110: b091 b73d 17dc 913e a8bb a83e 4890 11be
-0.059700213 0.3221073 0.10011077 -0.13221455 0.024647634 0.3029487 -0.2757162 -0.14570408
0.137322 -0.23570375 -0.0627269 0.13894562 0.056262773 0.049969 -0.24262469 -0.03341496
0.2629174 0.036310077 -0.068207346 -0.16479461 0.13591263 0.114307925 -0.24934594 0.10626125
0.026341638 0.3170583 0.10455871 0.011926135 0.32989058 -0.09080895 0.04819473 0.26863417
0.21932344 -0.15389983 -0.044326983 -0.08355558 -0.2964893 0.2476072 0.25429922 0.046365224
0.31110686 0.004221678 -0.014602105 -0.097954474 0.15827855 0.091915414 -0.050124846 0.30960053
0.24514715 0.21314225 0.16706824 -0.200816 0.20887399 0.2665243 0.28313005 -0.05905533
0.24413309 0.19743776 -0.2506764 -0.19356251 0.019781789 0.10836458 0.0413212 -0.25731122
0.19573686 0.0021906297 -0.019476455 0.24453446 0.089633346 0.28488228 0.3295567 -0.14215195

conv1.bias f4 [8]
00000000: 771a 853e db55 3fbe 03f3 a23e bbd8 f33d
00000010: 900f 02be 00fe 6d3b 0e87 74be 2b92 873e
0.25996754 -0.18685095 0.31826028 0.119065724 -0.12701249 0.0036314726 -0.23879644 0.26478705

conv2.weight f4 [16, 8, 3, 3]
00000000: 9ff3 c3bd ed02 cd3d 0386 e5bd a8f7 69bd
00000010: 12cd 8cbd b48c bebb a0b2 d43d d217 8bbd
00000020: 6654 2ebc a4d8 9d3d 6e12 7a3d f5db d83c
00000030: bdde b43c d0fc e93c c090 7a3d 99a3 e9bd
00000040: 0b3d cf3d 5306 9fbd 57bb 2fbd 055a ddbd
00000050: 8f46 71bd 3ed8 95bd 1715 32bd be9f a53c
00000060: 258b 623d efcf cabd 1f77 59bd 22d5 a0bd
00000070: b83f 3f3c 72f1 dd3b ff65 82bd 120a 71bd
00000080: 4868 e5bb 8898 4abd 6253 b7bb d4f9 e53b
00000090: 6bbe 503b e98d 7bbd 42ec f8bc a4c7 fabb
000000a0: 2993 e5bd 1b27 8cbd a3cd 13bc adfb 9cbd
000000b0: 6e06 e8bd 989c 573d 53aa abbd 8c6f 8e3d
000000c0: 4bce 9abd 552a e0bd 5a5c a1bb c571 803d
000000d0: 448d f73a 3db8 8fbd 8dd1 cf3d 7c40 4c3c
000000e0: 76df d7bb db61 ae3d 10ac edbc dfaa 3d3d
000000f0: d7fc ba3d 0bdd f33a c049 6fbd f447 7cbc
00000100: 78eb e3bd 9559 213d 7431 98bd ee36 9ebc
00000110: 89ef 4b3d a493 d63d e8fa 19bd 0628 12bd
00000120: 49d1 d6bc 4b5b e7bc 6746 f03d 04ac e8bd
00000130: abad 92bc d9cc 473d d4f5 eb3d 4f6d 8c3c
00000140: a0ed f03d 9398 8fbd 7b3f bd3c beb7 f3bc
00000150: be38 f93c 93f7 c6bd 1698 d13d c219 6fbb
00000160: 026a a33d 709c 3ebd e08f aebd 6510 733d
00000170: 681e fa3a 913f 5f3d 1f14 8abc 2500 503c
00000180: aea8 e8bd 007b 873c aa29 d53d 94dc 8e3d
00000190: 2acd dbbd 511e ca3d 8b4d afbd fc35 47bd
000001a0: 28eb d73d 3a64 773d cbda 883d b01b 31bc
000001b0: fa89 6e3d 22bf 81bc eb77 593d 5a63 4b3d
000001c0: ea65 7cbd 297b 54bd 12a7 e33d cca0 babd
000001d0: e32a 91bd df9c 413d 0d64 cfbc 3e7e f7bc
000001e0: 17c6 82bc 6375 9cbd 1583 b9bd b012 773d
000001f0: 2162 a53d 8341 a03c b16f b43d a261 4e3d
00000200: 3676 d33d a016 7a3c 535e ca3d 939a f33c
00000210: 5252 21bd 10f1 98bc 4d9a 9f3d e4fe 713d
00000220: 3ae5 683d 9b25 f13c 7516 b5bd 0f76 d2bd
00000230: ab8b 20bd df9a a3bd 1108 313d 2967 d63d
00000240: d0c0 95bd 5cfc a13d 14dd afbc 2e81 c9bc
00000250: f587 b2bd adf6 c53d c597 cdbd 07cb 80bd
00000260: e684 c5bd 5df8 8bbd b999 d4bd f59b 7f3c
00000270: dc39 4ebd 62ef eb3d 800d eb3d bae3 92bd
00000280: af92 ab3d 3e41 83bd 9f5b cdbc 962f 9b3d
00000290: 5af9 dcbd 8e29 e4bc 575f d0bc faf0 8bbb
000002a0: 7e6f 86bd 3a51 8a3c 88d3 ac3d 2148 7cbd
000002b0: 77df 1bbd dd54 b63d d6a5 b43d 0623 08bd
000002c0: b091 01bd 85b1 2abd 316e 28bb 84a5 093d
000002d0: dc59 e5bd 30a4 db3b a19a d5bc b9a9 bdbd
000002e0: 23d0 90bd fc80 efbd 2b34 21bd f96a b1bd
000002f0: 4421 973d 9288 d63d 3a67 60bd 2566 ee3d
00000300: e975 ec3d d78b bdbd d197 cbbd 0a3c 473d
00000310: 711b ba3a 975f ba3c 7804 dabc 5814 183d
00000320: f756 adbd 743f acbd b594 ca3d 7369 fc3c
00000330: 4b16 bbbd 9b1e 69bd 76a2 a8bc 166a 863c
00000340: 6b72 913d 0cb0 24bd 18f3 b33d 1fd3 aa3d
00000350: 452a 46bd 4a39 a6bd 7ff8 e6bd 6cff e7bd
00000360: 5d10 9abd 6055 e1bd 3c7b 003d cca3 f0bd
00000370: 1d4b 8a3d 43f2 28bd 5da0 bb3d 12d8 e13d
00000380: 0701 e83d b380 373c e828 723d df7c c7bc
00000390: 6bc2 08bd f040 e33d 4d11 693d a0f4 a4bc
000003a0: 0c4e d13d 719b c5bd f3b5 b53d ad40 38bd
000003b0: b082 b0bc 445c 943d 6ae5 bcbc 8b18 193d
000003c0: 065d 10bd 3073 a4bd d3bb 7abd ed25 d83d
000003d0: ae72 90bc b365 403c 2857 e13d e4bc fc3c
000003e0: f98a b3bd 28c4 62bd 1dd3 efbd 84e3 673d
000003f0: 8126 c53d b50f 8abd 3b28 433d 964b 88bd
-0.095679514 0.10010324 -0.11207201 -0.05712095 -0.068750516 -0.005815113 0.103856325 -0.06791653
-0.010640239 0.077073365 0.061052732 0.026472071 0.022078866 0.028562933 0.0611732 -0.11408157
0.10119065 -0.07764878 -0.04290327 -0.108081855 -0.05890518 -0.073166355 -0.043477144 0.020217773
0.05530848 -0.099029414 -0.05309212 -0.07853152 0.011672907 0.0067731673 -0.063671105 -0.058847494
-0.0070009567 -0.04946187 -0.005594657 0.007018307 0.003185178 -0.061414633 -0.030386094 -0.0076531935
-0.11209709 -0.06843396 -0.009021196 -0.07665191 -0.11329351 0.052639574 -0.08382096 0.0695487
-0.075588785 -0.10945574 -0.0049243392 0.062717 0.0018886705 -0.070175625 0.101473905 0.012466546
-0.006587918 0.08514758 -0.02901271 0.046305533 0.091302566 0.0018605305 -0.058419943 -0.015398014
-0.111288965 0.039392073 -0.074313074 -0.019313302 0.049788985 0.10477379 -0.0375928 -0.0356827
-0.026222842 -0.028241774 0.11732178 -0.113609344 -0.017905077 0.048779342 0.11521497 0.017141966
0.11764073 -0.07011523 0.023101559 -0.029750701 0.030422565 -0.0971519 0.10234086 -0.0036483859
0.07979204 -0.04653591 -0.08523536 0.059341807 0.0019082548 0.05450398 -0.016855298 0.012695347
-0.11360298 0.016538143 0.104083374 0.06975666 -0.10732491 0.09869064 -0.08559712 -0.048635468
0.10542899 0.060398318 0.066823564 -0.010809824 0.058237053 -0.01583821 0.05309288 0.049655296
-0.06162063 -0.051875267 0.111158505 -0.09112701 -0.07088258 0.047268745 -0.025316263 -0.030211564
-0.015963597 -0.07639577 -0.09058205 0.060320556 0.08075357 0.019562488 0.08810366 0.05038608
0.10325281 0.015264183 0.09881272 0.029736793 -0.039385147 -0.018669635 0.077931024 0.059080973
0.056859232 0.029436877 -0.08842174 -0.10276424 -0.039195698 -0.07988524 0.043220583 0.10468895
-0.07312167 0.07909462 -0.021467723 -0.02459773 -0.08717338 0.0966619 -0.10038713 -0.062887244
-0.09644489 -0.06834481 -0.10380883 0.015601148 -0.050348148 0.11520268 0.11477184 -0.07172342
0.08377587 -0.06408928 -0.025068102 0.07577436 -0.107897475 -0.027851846 -0.025436087 -0.00427067
-0.06564234 0.016884435 0.08438784 -0.061592225 -0.03805491 0.08902905 0.08820693 -0.033236526
-0.03163308 -0.041673202 -0.0025700445 0.033605114 -0.1119878 0.0067029223 -0.02607471 -0.09260888
-0.07070949 -0.11694524 -0.039356392 -0.086629815 0.07379392 0.104752675 -0.054785945 0.11640576
0.11545927 -0.09255188 -0.09941066 0.048641242 0.0014198852 0.022750659 -0.026613459 0.037128776
-0.08463853 -0.0841054 0.09891645 0.030812 -0.091351114 -0.056913953 -0.02058528 0.016408008
0.071019016 -0.040206954 0.08786601 0.083410494 -0.048380155 -0.08116396 -0.112778656 -0.11328015
-0.07522652 -0.11002612 0.031367525 -0.11749992 0.06752608 -0.041246664 0.09161446 0.1102754
0.11328321 0.011200118 0.059121042 -0.024351535 -0.033388536 0.1109637 0.056901265 -0.020136178
0.102199644 -0.09648789 0.08872595 -0.044983555 -0.021546692 0.07244161 -0.023058612 0.03737692
-0.035244964 -0.08029783 -0.06121428 0.10554109 -0.017632809 0.011742997 0.11002952 0.030851789
-0.08766741 -0.05536285 -0.117101885 0.05661346 0.09626485 -0.06741277 0.04764579 -0.06655042

conv2.bias f4 [16]
00000000: 3059 e1bd 89dc f0bb 23cb cc3c 8e14 bd3d
00000010: b209 6dbd 194a a23d 3bcc d5bd e443 71bb
00000020: 6887 47bd 1cbb 94bb 5e97 9dbd 2bb3 823d
00000030: 90dd 8c3d f414 2a3d 54b7 2cbc 227e 60bd
-0.11003339 -0.0073505086 0.024999207 0.09232436 -0.057870574 0.07924289 -0.104393445 -0.0036814148
-0.048713118 -0.0045389067 -0.076948866 0.0638183 0.06878197 0.04152389 -0.010541756 -0.05480779

conv3.weight f4 [32, 16, 3, 3]
00000000: c0b3 093c a07d 403c d628 203b 40b1 b23c
00000010: 8ea6 5b3d a0a7 95bd 0fd4 a93d 4bfa 95bd
00000020: c075 ce3b 16ff eebb beb9 a53d 4e45 2f3d
00000030: fc0d 8b3d 3493 9c3d 74b5 a0bd 209f 1cbd
00000040: 3b9e 9a3d 40cc bd3c db9b e03c abfa 8bbc
00000050: f050 073d 567f 4c3a 500c 893c f66a d43c
00000060: f6f0 9f3d 0b55 fcbc 0b66 393c f629 d53c
00000070: ec8a 8d3d 4bbf 473d 4b22 a0bd 2ee2 37bd
00000080: 3e63 a43d 70e4 86bd de44 9c3d 8696 aabd
00000090: b0ce 7cbd 77b7 a93d 5695 6abb de50 943d
000000a0: 8095 69bb 80d1 cb3b 8bc9 51bc bb93 9f3d
000000b0: 525b a03d b699 8fbc b066 5b3d b78f 8dbd
000000c0: 807b 19bd 50b6 8b3d 16a6 713d cb95 4c3c
000000d0: c2df 93bd 2b66 293d ab4f 533b ce2d 303d
000000e0: 6bae c3bb d063 073d cef9 a4bd a6cf 56bd
000000f0: 9408 89bd 9644 ef3b f0e5 e5bc 6aa6 803d
00000100: a0e8 0f3d 5b25 6fbd dcb7 81bd f69a 12bd
00000110: 042e 90bd 265b 43bd 6899 8ebd 8eca 503d
00000120: d8ac 553d f0d0 99bc bbf7 06bd 5c35 94bd
00000130: 765b a63c d097 4b3d b049 bdbc 631e 83bd
00000140: 585b 41bd a0da 08bc 6b32 3c3c 0619 88bd
00000150: 0b84 97bc 8e9c 8c3d 9651 fe3c d8f0 703d
00000160: 9ba3 e1bc 1ae0 9cbd 5bd1 dcbc 6c4e 913d
00000170: f6d7 363c 82c8 85bd 23c6 3c3d e0a3 633d
00000180: f4b6 a43d 8b37 98bd 5634 ac3a 733d 90bd
00000190: f62d dcbc 160e 5bbd b875 1dbd 70c0 4ebd
000001a0: f085 df3c e356 1b3d c02e 57bd a6a1 dc3c
000001b0: 56c8 97ba 5b7a 343d 2066 1c3c 263b c4bc
000001c0: 260f 85bd 7872 3b3d ea9a a33d 7bc4 9cbc
000001d0: c0eb fe3b 56ab 393d 803a 2dbc 7087 a73d
000001e0: c6b8 24bd 6bd6 ff3b a09d 06bc 00fc 08bd
000001f0: 80b6 2c3c 90fd 253d 5877 2d3d bc07 823d
00000200: 5a03 8d3d 40ba 88bc 68aa 763d 9b89 9d3d
00000210: b0dd 293d d61c 1b3c 0b09 1b3c 401b 48bc
00000220: b669 01bd eb92 c43b d656 7b3b 009a ea3a
00000230: f0f7 ad3c 5bcf 9dbd ae3f 80bd eb42 5c3c
00000240: d8e5 603d 16cf 7a3d 5659 333a 0600 e4bc
00000250: 4b72 49bc bb6d aabd 80aa 8cbb 0094 083c
00000260: 161b f0bb 6769 863d 7e86 33bd b05f 9cbd
00000270: 9ea7 933d ae95 5fbd 3301 a7bd eb2e 85bc
00000280: 27ec 8dbd 3b22 b9bc 36b5 1cbd 40ea 4e3c
00000290: 06aa 9d3d 889d 26bd 0310 9ebd 5670 52bd
000002a0: 40ef a53b 63c2 963d f016 babc 68fc 81bd
000002b0: bedb 0cbd d0b5 46bd 3bcf 74bd ea3e 973d
000002c0: 8bd0 c03c 302b 46bd d652 6bbb 7cdc 89bd
000002d0: 98e0 3cbd b6d0 e23c d873 443d 76b0 053d
000002e0: 4cbc 8ebd 00ee 33bd cb7d a8bc 5b9d 08bd
000002f0: f443 963d d67d 07bd ebd1 653d 9684 ebbc
00000300: fba1 26bd f8c1 5dbd 00a3 8e3c 93b1 943d
00000310: 232a a73d b679 6bbc 00fc 84ba 7350 063d
00000320: cbbb 0d3d 060c bb3c 0a6c 873d f61a a13c
00000330: 5006 3c3d ea58 a93d 164f 9f3c 530d a6bd
00000340: e710 9ebd 700c 13bd 98fe 91bd a0d5 443d
00000350: 2a87 96bd 56d7 1bba 2bd2 983b 78d0 9bbd
00000360: b316 7d3d a4a7 a23d 9225 a53d e367 723d
00000370: 568d afb9 70d3 c9bc a8da 233d 4009 e63c
00000380: a719 85bd 1607 85bc 1842 83bd 5655 19b6
00000390: f800 563d 02a5 a53d 4bf7 71bc 704f 9f3d
000003a0: cea6 1dbd 3096 af3c e04e 72bd 463b 673d
000003b0: 6b0e d73c da0b 8d3d c0a3 12bd 560b 37bc
000003c0: cbe3 39bd 2325 73bd 4b51 20bc bf27 96bd
000003d0: 6aab 86bd 788c 723d abf6 203c fb37 683d
000003e0: c84f 34bd 4bfa 73bc 1629 8fbc 066e 393d
000003f0: b6e7 563d 0be9 a23c d0de 8ebd b610 1c3c
0.008404672 0.011748701 0.0024438403 0.021813035 0.053625636 -0.073073626 0.082924 -0.0732313
0.006300658 -0.007293592 0.08092068 0.042790703 0.06789777 0.07645264 -0.078471094 -0.03823769
0.07549711 0.023168683 0.027418068 -0.017087301 0.033036172 0.0007800957 0.016729504 0.02592991
0.078096315 -0.03080227 0.011315833 0.026020985 0.06911263 0.048766416 -0.07819041 -0.044893436
0.080267414 -0.0658654 0.07630323 -0.08329491 -0.06172055 0.08286946 -0.0035794578 0.07241987
-0.0035642087 0.0062200427 -0.012804399 0.07791849 0.07829918 -0.01752935 0.053564727 -0.06912177
-0.037471294 0.06821883 0.058996283 0.012486885 -0.07220413 0.0413572 0.003224353 0.043012433
-0.00597172 0.033054173 -0.08055459 -0.052444123 -0.06691089 0.0073018773 -0.028063744 0.06281741
0.035133958 -0.058385234 -0.063338965 -0.035792314 -0.07040027 -0.047694348 -0.06962854 0.05097442
0.05216679 -0.018776387 -0.032951098 -0.0723674 0.020307284 0.049705327 -0.023106426 -0.0640228
-0.047206253 -0.0083529055 0.01148663 -0.06645398 -0.01849558 0.06865798 0.031044763 0.058823436
-0.027543833 -0.076599315 -0.026955297 0.07095036 0.011159888 -0.065323845 0.046087395 0.055576205
0.08042708 -0.07432469 0.0013138156 -0.070429705 -0.026877385 -0.05348023 -0.038442343 -0.05047649
0.027285546 0.03792466 -0.05253482 0.026932549 -0.001158009 0.044062 0.009545833 -0.023953985
-0.0649703 0.045763463 0.07988532 -0.019136658 0.0077795684 0.045329414 -0.0105730295 0.081801295
-0.040215276 0.007807543 -0.008216292 -0.03344345 0.010541558 0.04052502 0.042350143 0.063491315
0.06885405 -0.016690373 0.060221106 0.07692262 0.041471183 0.009467324 0.009462605 -0.012213528
-0.031594954 0.0059989593 0.0038351319 0.0017898679 0.02123639 -0.077055655 -0.06262146 0.013443689
0.054906696 0.06123265 0.000684162 -0.027832042 -0.012295316 -0.08321711 -0.004292786 0.008336067
-0.0073274476 0.06563073 -0.043829434 -0.076354384 0.07209705 -0.054586105 -0.081545256 -0.016257724
-0.06929808 -0.02259933 -0.038258754 0.012629092 0.07698445 -0.040677577 -0.07717898 -0.051376663
0.005063921 0.07361295 -0.022716016 -0.06346971 -0.03438925 -0.048513234 -0.059767943 0.07385047
0.023536941 -0.04838103 -0.0035907528 -0.06731507 -0.046112627 0.027687412 0.04796204 0.03263899
-0.069695085 -0.043928146 -0.020567795 -0.03335319 0.0733718 -0.03307899 0.056108397 -0.028749745
-0.04068182 -0.05414006 0.017411709 0.07260432 0.08162334 -0.01437228 -0.0010145903 0.032791566
0.03460292 0.022832882 0.06612404 0.019666176 0.045904458 0.08268912 0.01944689 -0.0810801
-0.077180676 -0.035900533 -0.07128638 0.04805529 -0.07349999 -0.00059448683 0.004663726 -0.07608122
0.061789226 0.07942131 0.080638066 0.059181105 -0.00033483905 -0.024636954 0.04000345 0.028080583
-0.064990334 -0.01623873 -0.06409091 -2.2848449e-06 0.052247018 0.08088113 -0.014768432 0.077788234
-0.038489155 0.02143392 -0.059157252 0.056453012 0.026251992 0.06887026 -0.035800695 -0.011172136
-0.045383256 -0.05936159 -0.009785007 -0.073318 -0.065756634 0.059215993 0.009824435 0.056694012
-0.044021398 -0.014891217 -0.017475646 0.045270942 0.05246707 0.019886514 -0.06976092 0.009525469

conv3.bias f4 [32]
00000000: 73d2 3c3d 6052 2a3d 0bfe bd3c 2e2a 0a3d
00000010: 688c 1a3d 60e4 e4bc 8b89 833d 92be 97bd
00000020: 3498 883d d64e 58bc 2bbf 693d 2716 94bd
00000030: 40b9 1bbd 3815 613d 9851 74bd 3271 aabd
00000040: b6bb a9bd f605 36bd ac27 8b3d de37 a93d
00000050: bb4f 4dbd 165a 7e3d 409b 8ebd 4b0e 803d
00000060: 33e2 883d 9e40 94bd c73c 8e3d 90ad 6cbd
00000070: b641 8e3d eeed a2bd 2b2d 0e3b f850 613d
0.046099138 0.041582465 0.023192426 0.033731632 0.037731558 -0.027940929 0.064227186 -0.07409395
0.066696554 -0.01320239 0.057067078 -0.07230788 -0.038018465 0.054951876 -0.059648126 -0.083223715
-0.08287756 -0.04443928 0.06794676 0.08262609 -0.050124865 0.06209763 -0.06963205 0.06252726
0.06683769 -0.07238887 0.06945186 -0.05778271 0.06946127 -0.07955538 0.0021694403 0.05500886

convt3.weight f4 [32, 16, 3, 3]
00000000: 9622 3f3c e3f3 3e3d 4b19 203d d08a e4bc
00000010: 46d2 973c 88df 2f3d 8b79 8fbc 780a 3f3d
00000020: e2a0 a03d 50fc 6a3d d6cc 873c b0f4 ffbc
00000030: a67b 183d 56b7 08ba b648 183d 8000 f5bc
00000040: 96b3 62bd b41d 87bd f33b 0abd 43b0 41bd
00000050: 4bb6 4b3c ee5b 77bd 0030 bc3c d68f aa3c
00000060: b877 32bd be1c 0c3d f7e6 80bd 5818 9b3d
00000070: cbac 3c3c 7b91 d43c 0309 0a3d c394 603d
00000080: 63cf 643d 80cf 29bd a32c 94bd 481a 493d
00000090: 0b6b 1b3d f0b5 22bd 96af f43c d6f6 333c
000000a0: 42a9 85bd b471 8b3d eb2c 21bc 067b a5bd
000000b0: ebe0 7b3c 90e1 93bc c09a ab3b 603c 3bbd
000000c0: 2ed9 24bd c0fa 88bb 3695 4f3d c8cc 2c3d
000000d0: 5225 a03d 36e3 8c3d f693 443d e0c2 7dbd
000000e0: 4bfd d2bc 6035 73bc 8b80 a13d abd0 9abc
000000f0: f6f8 533d b6ac 61bd 5699 293c 0b8a 513c
00000100: 60e4 3a3c deb8 0a3d eb9b 393d 20a3 963c
00000110: d64e d63b 6b3a e7bb 2e21 1f3d 4bc2 4cbd
00000120: 2838 31bd ab22 aebb 5441 8cbd d03d 193d
00000130: 56d4 433d 26b0 0e3d 2ee8 5fbd f65c f73c
00000140: 18b1 a73d 3be2 71bd cb9c 153c 6b9e 913c
00000150: d6e8 39bb f0de f83c 00fc 6aba 00ae 073c
00000160: 160b 303d db28 52bd 8bba 12bc 1e0b 6abd
00000170: 4356 51bd 206c 773d b007 d93c f3cb 39bd
00000180: 1318 24bd 9685 15bd 1b08 b43c 6ed6 523d
00000190: e006 7e3d 589f a5bd 1717 84bd eac8 98bd
000001a0: 1b0d 883c 7b6a debc 53a8 4e3d 5624 72bd
000001b0: 8bce 20bd eb9f e5bb eb3c a83c 0e9d 50bd
000001c0: 609a 113d 4452 94bd e8bd 033d d364 083d
000001d0: d2fd 8d3d a3d8 3b3d 7ea7 783d 7eee a43d
000001e0: 2e10 583d 3ee2 0dbd 53c5 173d 7e57 993d
000001f0: db0a 53bd 1ec4 193d 2057 e4bc dbef df3c
00000200: 0085 5f3d c6e3 823c 66f8 8abd 6ba1 eb3c
00000210: 98c0 803d 108d fd3c b3e8 17bd 6b6d f63b
00000220: 80b6 c43c d6d8 113b 87f7 a5bd c00c debb
00000230: fb4b 943c a6cb 923d 865d 2c3d 0e45 5abd
00000240: 934d 17bd 20b3 163c 50cc dd3c 240c 82bd
00000250: 00f2 40bd abfb 613d a077 0f3c d616 12bc
00000260: a3e0 32bd 101a 39bd b634 0abc 54eb 91bd
00000270: a692 e93c 4b78 0cbd 003e 72bb fe76 4e3d
00000280: c3d2 a03d d2a7 993d d7d5 93bd 1862 863d
00000290: 0b87 94bd d39b 583d 8feb a7bd 06f3 423d
000002a0: 4b88 e3bc 5bc6 543d 8057 c13c 9690 95bb
000002b0: 587b 60bd 40c9 14bc 8648 82bd 660d 1dbd
000002c0: aee5 9b3d 2b2f 47bc 108a eabc 4339 003d
000002d0: b0d8 8b3c 60c9 79bd 7650 6dbd 761e 93bd
000002e0: 90e1 8d3d 2e6b 7ebd 562f 98bd 0b78 ba3c
000002f0: f05a 03bd 96d4 003c 8bc1 3ebd defd 69bd
00000300: c41f 94bd f042 76bd cbc0 cfbc 8082 a5bc
00000310: 8a2d 9bbd 338c 993d 37ea a63d c7f6 8fbd
00000320: 7b4c 1dbd f887 51bd c054 17bc 2b70 fabb
00000330: bbbc ebbc 96f7 2b3d cb3f 21bc 13c7 24bd
00000340: a0ab 52bc d813 293d 384e 80bd 3704 92bd
00000350: 0015 eabc 40e1 dabb 985f 763d 569c 9aba
00000360: 4be8 0d3d 2e8b 62bd d099 7b3d af2c a33d
00000370: eb20 833c 8bba acbc 4802 05bd 2314 533d
00000380: 3be4 343d 364c 483d 5b9b 68bd aa7f a9bd
00000390: ab47 56bd 0b0c 2d3d 6ba3 623c 5663 ca3a
000003a0: 7ebc 9cbd e0b3 653c 102a 813c 863e cabc
000003b0: 7bca 8fbc b8ff 573d f779 983d 4896 813d
000003c0: f6f5 30bd be88 5c3d 5097 fcbc 1070 7f3d
000003d0: 5e9a 1bbd 837d 483d 8e1c 393d 3e9a 97bd
000003e0: b848 18bd 4377 683d e3eb 8cbd 4682 983c
000003f0: 0046 8c3b d88e 0d3d 6379 4dbd f055 a53d
0.011665961 0.046619307 0.03908662 -0.027898222 0.018532883 0.042937785 -0.01751401 0.046640843
0.07843186 0.05736953 0.016577166 -0.031244606 0.037227295 -0.00052153075 0.037178718 -0.029907465
-0.055347048 -0.06597462 -0.03374858 -0.047287237 0.012433599 -0.060390405 0.022972107 0.02082054
-0.043571204 0.0342071 -0.06294053 0.075730026 0.011515806 0.025948277 0.0337 0.05482937
0.055861842 -0.041457653 -0.07235076 0.04909733 0.03794388 -0.03972429 0.029868882 0.010984143
-0.06526424 0.068087965 -0.009837369 -0.080801055 0.015373449 -0.018051893 0.0052369535 -0.045711875
-0.04024618 -0.0041802824 0.050679408 0.042187482 0.07819618 0.068792745 0.04799267 -0.061953425
-0.025755545 -0.014844269 0.07885846 -0.018898329 0.0517511 -0.05509635 0.0103515 0.01278926
0.011406988 0.03386771 0.04531471 0.018388331 0.0065401597 -0.0070565245 0.038850002 -0.04998998
-0.043266445 -0.0053141913 -0.06848398 0.037412465 0.04780992 0.034835957 -0.054664783 0.030195694
0.08188075 -0.05905364 0.009131621 0.017775735 -0.002836754 0.030379742 -0.00089639425 0.008281231
0.042979322 -0.051308494 -0.008955608 -0.05713951 -0.051107656 0.06040585 0.026492923 -0.045360517
-0.04006202 -0.03650435 0.021976521 0.051474027 0.062018275 -0.08087033 -0.064497165 -0.07460196
0.016607812 -0.027150383 0.050453495 -0.059116684 -0.039259475 -0.007007589 0.02053686 -0.05093103
0.035547614 -0.072422534 0.03216353 0.03329928 0.06933178 0.045860898 0.060706608 0.08053301
0.052749805 -0.03463959 0.037053417 0.07487391 -0.051524024 0.037540548 -0.027873576 0.027336052
0.054570198 0.015977751 -0.067856595 0.028763494 0.06286734 0.030951053 -0.037087154 0.007520368
0.024012804 0.0022254488 -0.08103853 -0.0067764223 0.018102637 0.07167749 0.04208138 -0.053288512
-0.036939215 0.00919798 0.027074963 -0.06349972 -0.04710579 0.05517165 0.008756548 -0.008916577
-0.04367126 -0.04519087 -0.008435419 -0.071249634 0.02851231 -0.034294408 -0.0036963224 0.05040645
0.078526996 0.07502712 -0.07218521 0.06561679 -0.0725232 0.05288298 -0.08199226 0.047595046
-0.02777495 0.05194698 0.023601294 -0.004564355 -0.05480513 -0.009081185 -0.06361489 -0.038342856
0.07612167 -0.012157242 -0.028630286 0.03130461 0.017071098 -0.06098306 -0.05793806 -0.07183544
0.06927788 -0.062113933 -0.074309036 0.02276232 -0.032069147 0.007863184 -0.046571296 -0.057126872
-0.07232621 -0.06012243 -0.025360486 -0.020203829 -0.07577045 0.07497444 0.08150142 -0.07029491
-0.038403016 -0.05115506 -0.009236515 -0.007642766 -0.028776517 0.041984163 -0.00984187 -0.040228914
-0.012858301 0.04127869 -0.06264919 -0.0712971 -0.028574467 -0.006679684 0.06014976 -0.0011795859
0.03464536 -0.055308513 0.061425984 0.07967507 0.016006907 -0.021085044 -0.03247288 0.051532876
0.04416297 0.048900805 -0.056788784 -0.08276303 -0.05231444 0.042247813 0.013832907 0.0015440981
-0.076531395 0.014019936 0.015767127 -0.024688017 -0.017552605 0.052734107 0.07445138 0.06327492
-0.043203317 0.053841345 -0.03083387 0.06236273 -0.037989013 0.048947822 0.045193247 -0.07402466
-0.037178725 0.05675436 -0.06880929 0.018616807 0.0042808056 0.034560055 -0.05016459 0.08073032

convt3.bias f4 [16]
00000000: 80e0 f73c f8db 3b3d e842 00bd ae05 623d
00000010: 368b 553d fe1b 2fbd ced2 46bd 5046 b7bc
00000020: a27a 9e3d e348 83bd 4e04 413d a6ee 8e3d
00000030: 6b50 1abc 6650 5abd 4096 3abc 33c1 a73d
0.030258417 0.045864075 -0.031313807 0.055181198 0.052134715 -0.042751305 -0.048540883 -0.022372395
0.07738234 -0.064103864 0.047123246 0.06979112 -0.009418587 -0.05329933 -0.011388361 0.08191147

convt2.weight f4 [16, 8, 3, 3]
00000000: 8117 40bd 6c7d 8ebd 319f a1bd c6bf 43bc
00000010: 4c12 c7bd 6b6a 94bd 3063 bc3d 12cb 643b
00000020: 014f f43c 25cc c83d 212b e0bd b184 3ebb
00000030: a658 813d 0c5f fa3c 0604 bd3c 6578 393d
00000040: 7727 b4bd 8235 a83c 40a0 dc3d b3cb 7ebd
00000050: badc 76bb a1c9 a13d 5cd7 583c 664b 8d3d
00000060: b779 45bd 4f3b 923d b353 893c fb8d 033d
00000070: 03a8 6d3d 3149 a73d 3b28 92bd 4a97 17bd
00000080: d1b6 663d c457 5d3c e5ba b0bd f89e 94bd
00000090: 032a efbd a039 90bd fe81 8cbc 9af0 85bd
000000a0: e2ac dcbd 4054 90bd 2768 0b3c 8980 453d
000000b0: db91 583d 0bf5 c3bd 45c6 d4bd bd1f 1cbc
000000c0: 0853 c5bc 9e33 42bd 6a6a 2b3d 129d 82bd
000000d0: e54e 953d b409 413d 5b1d 85bd 96b8 cbbd
000000e0: 7043 3a3d 5b81 ca3d 5972 a93d e65c cf3d
000000f0: 9431 61bd 749f 5fbd cd31 e03d b800 d2bd
00000100: 1b5d b7bd a056 7dbd 3c7a 6abd ca08 e23d
00000110: 2da5 2a3d 228a 3bbd 9024 8b3c b29f 543d
00000120: ff93 5a3d aabc 65bd ec21 c7bc 9c6c b53d
00000130: f62e e8bd d7a1 eabd 9e5b e3bd decf 07bd
00000140: a8c0 7a3d dca4 dc3d db44 ab3d e19b 14bc
00000150: 9a3c b33c b6fc 17bd d047 2dbd 8bfe 2ebd
00000160: dffe 973d be9e 6bbc d155 d4bd 14cc 0dbd
00000170: e8ee 463d a12f 06bd 2b73 26bd 0406 95bd
00000180: 4009 c53d 7ad0 423d d9af 2d3d c186 91bd
00000190: 8a72 d63d ac34 013d a95f a5bd b60a d93c
000001a0: 3764 503d f29d 893b 325e c43d 18e4 693c
000001b0: 2544 b43c 8e7d b53d 2ae6 bd3d f348 04bd
000001c0: bac4 c0bd 65b0 8b3b 7ff8 d3bd 7b2c e5bd
000001d0: ffd2 9cbd c0ff e53c 48a7 e9bd 32e6 edbc
000001e0: 6626 323d 85d0 d6bc 1092 a4bd e9bf b4bd
000001f0: 7947 b0bd 89a1 0d3d d01d 97ba 3d27 bf3d
00000200: 209e 79bd a21d cd3b 4eb7 933c edc0 98bd
00000210: 6e7b d5bc a6e8 a93d f0f6 25bd a38a df3d
00000220: faed 8dba 058d 9ebc 5d66 553b 3d5b 5bbd
00000230: 0b16 603d 3c7d 21bd dff9 b4bb 220b e33d
00000240: 957f 55bb 21cf 0e3c 7fd8 eabd 87c7 ec3d
00000250: 68e6 39bc 0a75 1fbd 3faa ba3c 0874 013d
00000260: 2bdc c23d 2f7a 1a3d 8ab8 91bc 656f cc3d
00000270: 0637 f5bc df32 9b3d f6cd 97bd 5ecb 73bc
00000280: 63e9 a5bd 61a1 9f3d 7f39 11bd d229 e5bb
00000290: 790a e53c e863 9f3d 82c8 cc3d f90b d33d
000002a0: 3337 883d 2cee dc3a 5d0c 893d 7445 d23d
000002b0: 9574 a23d e18d 28bd 72c2 db3c 6fb9 c0bd
000002c0: de60 5cbd dc77 a9bc 36c9 c03d 2400 cd3d
000002d0: 8620 f13d 71c8 9b3d 2bf8 c73d e637 543d
000002e0: 2bb2 8e3d 357f a4bd 90d6 aebb 72ca 613c
000002f0: 427d 2dbd 90b9 0e3d 781e 86bd 2d4e 9b3d
00000300: 285a e63d 7ce0 0ebd 0ee1 a23c 3f01 10bb
00000310: 602f 983d d3b1 c7bd be09 d0bd e7c0 bc3d
00000320: 4b29 6dbd db24 a63c 993f d9bc 309c cf3d
00000330: 847e 3d3d 5e39 4b3d 3e8c c6bd 0534 2f3b
00000340: 4989 c53d 5bc2 af3c 4095 98bd 95e7 ecbd
00000350: bd06 bbbd 0ba5 cabd a3c5 273d 66b8 a2bc
00000360: 4a2e abbd 177d aa3d 159c b23d 452e 843c
00000370: 8c8a 2dbd e5b5 ddbd 048a 6c3d f528 9bbd
00000380: fbcc cdbd 9762 f03d 43ce 01bd 3d4b 83bd
00000390: ebcd ca3d a979 633c e3f5 673d 0a96 f43c
000003a0: 7751 b2bd d587 62bc 846f ecbb 5df7 d2bd
000003b0: 6655 aebd ddf4 cdbd 1d5f 773d c440 8ebc
000003c0: 9a67 e43c e186 493d c8f6 fabc ab5e 2fbd
000003d0: 06ac 593d 184b 1c3d 1d1d 293d 25e5 1ebd
000003e0: 9e17 dd3d cb23 633d c4d3 a1bd c78c 8abd
000003f0: 38a8 c33d d93f e73d 9097 8d3c 45a1 c8bd
-0.046897415 -0.06957516 -0.078916915 -0.011947578 -0.09720287 -0.0724686 0.09198606 0.0034911078
0.029822828 0.098045625 -0.10945726 -0.002907079 0.063157365 0.0305629 0.023073208 0.045280833
-0.0879659 0.020533327 0.10772753 -0.06220598 -0.0037668184 0.07899786 0.013234939 0.06899147
-0.04821178 0.071402185 0.016763544 0.032117825 0.058021557 0.08168257 -0.071365796 -0.037009515
0.05632669 0.0135096945 -0.08629397 -0.072568834 -0.11677935 -0.07042241 -0.017151829 -0.06540032
-0.10775162 -0.070473194 0.008508719 0.048218284 0.052873474 -0.095682226 -0.103893794 -0.009529051
-0.024087444 -0.047412507 0.04184953 -0.06377615 0.072904386 0.047128394 -0.0649974 -0.09947316
0.04547447 0.09887954 0.08273763 0.10125141 -0.054978922 -0.054595426 0.10946999 -0.10254043
-0.08953305 -0.06185019 -0.057245478 0.11036833 0.04166143 -0.04578603 0.016985208 0.05191011
0.053363796 -0.056088127 -0.024308167 0.08858606 -0.11337082 -0.1145665 -0.11101459 -0.033157222
0.061218888 0.10773632 0.083627425 -0.009070368 0.021879483 -0.03710624 -0.042304814 -0.04272322
0.0742166 -0.014381109 -0.10367931 -0.034618452 0.048567683 -0.032760266 -0.040637176 -0.07276538
0.09620905 0.0475621 0.04240403 -0.071057804 0.10471065 0.031544372 -0.08074886 0.026494365
0.050876822 0.0041997368 0.09588279 0.014275573 0.02200515 0.08861838 0.09272416 -0.032296132
-0.094125226 0.004262971 -0.10350131 -0.111901246 -0.07657432 0.028076053 -0.114088595 -0.02904043
0.04349365 -0.026222477 -0.08035672 -0.088256665 -0.08607382 0.03457788 -0.001152927 0.09333656
-0.060941815 0.006259636 0.018031742 -0.07458673 -0.026059832 0.08296327 -0.0405187 0.10915115
-0.0010828369 -0.019354353 0.0032562234 -0.05355381 0.05470852 -0.039426073 -0.005522951 0.11086108
-0.0032577266 0.008716376 -0.114670746 0.11561494 -0.011346437 -0.038929977 0.022786258 0.031604797
0.0951465 0.03771418 -0.01778819 0.09982184 -0.029933464 0.07578062 -0.07412331 -0.0148800295
-0.081011556 0.077944525 -0.035455223 -0.0069935108 0.027959095 0.077827275 0.09999181 0.10305018
0.066511534 0.0016855649 0.06691811 0.102671534 0.079323925 -0.04115093 0.026826117 -0.09410369
-0.053803317 -0.020687036 0.09413378 0.100097924 0.117737815 0.076065905 0.09764131 0.05181112
0.069675766 -0.08032075 -0.0053356364 0.013781177 -0.042355783 0.034844935 -0.0654878 0.0758327
0.11247665 -0.034882054 0.019882705 -0.00219734 0.07430911 -0.09750714 -0.10158108 0.09216481
-0.05790071 0.020281246 -0.026519584 0.10137212 0.046263233 0.049615256 -0.09694718 0.0026733887
0.09645326 0.02145498 -0.07450342 -0.11567608 -0.091321446 -0.09894761 0.040959965 -0.019863319
-0.08358438 0.0832464 0.087211765 0.016135344 -0.042368457 -0.10825709 0.05774881 -0.07576171
-0.100488625 0.117375545 -0.031690847 -0.06410835 0.09902557 0.0138839865 0.05663098 0.0298567
-0.087069444 -0.01382633 -0.007215442 -0.10301087 -0.08512382 -0.100564696 0.06039344 -0.017364867
0.027881432 0.049200896 -0.030635253 -0.04281489 0.05314257 0.038157552 0.04128753 -0.038792748
0.1079552 0.055454057 -0.07901719 -0.067651324 0.095535696 0.11291475 0.017284185 -0.09796385

convt2.bias f4 [8]
00000000: fae5 22bc 0a61 1bbd 8092 a83d 65b6 0ebd
00000010: ed73 cbbc f035 953d 4f64 d93d 33fd 89bd
-0.009942526 -0.03793434 0.08231068 -0.034841914 -0.024835551 0.072856784 0.106148355 -0.06737747

convt1.weight f4 [8, 1, 3, 3]
00000000: a67b 9a3e ae24 1fbe 4e7a 9d3e b6a4 553e
00000010: cbf3 633e ab31 3a3e 1a37 953e 5092 d83d
00000020: 8b71 babd d34b 2ebe 664c 74be eb53 363e
00000030: d2cb 99be d8f2 33be 762d 20bd bbf8 b3bd
00000040: 6093 a23e f072 d1bd a67f 9a3d 3bc3 61be
00000050: 7c26 97be e3c0 99be 1b4b 96be 0b3d e63d
00000060: abad 32be 5c51 a03e 9017 1f3e d09a f83d
00000070: 53b2 473e ab9f 0b3d eb66 a3bc 1443 993e
00000080: 56f5 0e3b 864b b2bd f6b0 31bd 4610 843d
00000090: 969b 92bc 40ad d43d 4b48 63bd d63d 783d
000000a0: cea2 0dbe a8e3 5cbe 168e 82bd 0ef0 793e
000000b0: 78ae 31be b607 1ebe fbdb 40be dbc8 57be
000000c0: d798 903e 0bec 183d a2c0 97be 4efc 8dbe
000000d0: d685 763d d633 05be bfc8 a43e d8dc 6cbe
000000e0: 4cc9 933e 7cba a63e 3e56 353e 566d 303b
000000f0: ae1e 883e 7be6 91bd 40b3 e93d 4083 53be
00000100: 060d af3d 0887 22be 838a a3be 533f 11be
00000110: 26db 64be 46df e0bd ab3c 5abe ae09 65be
0.3017246 -0.15541336 0.30757374 0.20863613 0.22260968 0.1818301 0.29143602 0.10574782
-0.09103688 -0.17021112 -0.23857269 0.1780545 -0.30038315 -0.17573106 -0.039105855 -0.08787676
0.31753063 -0.10227001 0.07543878 -0.22047131 -0.2952155 -0.30029973 -0.29354176 0.11242112
-0.17449062 0.31312072 0.15536332 0.12138903 0.19501619 0.034087818 -0.019946536 0.2993399
0.0021813712 -0.08705811 -0.043381654 0.064484164 -0.017896455 0.10384607 -0.055488866 0.060605846
-0.13831636 -0.21571219 -0.06374757 0.2440798 -0.17351711 -0.15432629 -0.18833916 -0.21072714
0.28241608 0.037334483 -0.29639155 -0.27731556 0.06018623 -0.13008055 0.32184407 -0.2313112
0.28864515 0.3256415 0.1770868 0.0026920638 0.26585907 -0.07124039 0.11411142 -0.20655537
0.08547406 -0.15871823 -0.31941614 -0.14184313 -0.22349223 -0.10980086 -0.21312205 -0.22366974

bn1.weight f4 [8]
00000000: 0000 803f 0000 803f 0000 803f 0000 803f
00000010: 0000 803f 0000 803f 0000 803f 0000 803f
1.0 1.0 1.0 1.0 1.0 1.0 1.0 1.0

bn1.bias f4 [8]
00000000: 0000 0000 0000 0000 0000 0000 0000 0000
00000010: 0000 0000 0000 0000 0000 0000 0000 0000
0.0 0.0 0.0 0.0 0.0 0.0 0.0 0.0

bn1.running_mean f4 [8]
00000000: 4326 ce3c a354 33be 4e0c 873e 46fb 1f3e
00000010: ae60 d8bd 5d7b 823c a828 a03d ce3c ad3d
0.025164729 -0.17512755 0.26376575 0.15623197 -0.10565315 0.015927965 0.078202546 0.08458863

bn1.running_var f4 [8]
00000000: 0781 b03d 6949 203e bae6 923d 59aa bb3d
00000010: 0445 3a3e 7eed 793e 8e95 e83d 758f 073e
0.0861836 0.15653004 0.07172914 0.091633506 0.1819039 0.24407002 0.1135665 0.13238318

bn2.weight f4 [16]
00000000: 0000 803f 0000 803f 0000 803f 0000 803f
00000010: 0000 803f 0000 803f 0000 803f 0000 803f
00000020: 0000 803f 0000 803f 0000 803f 0000 803f
00000030: 0000 803f 0000 803f 0000 803f 0000 803f
1.0 1.0 1.0 1.0 1.0 1.0 1.0 1.0
1.0 1.0 1.0 1.0 1.0 1.0 1.0 1.0

bn2.bias f4 [16]
00000000: 0000 0000 0000 0000 0000 0000 0000 0000
00000010: 0000 0000 0000 0000 0000 0000 0000 0000
00000020: 0000 0000 0000 0000 0000 0000 0000 0000
00000030: 0000 0000 0000 0000 0000 0000 0000 0000
0.0 0.0 0.0 0.0 0.0 0.0 0.0 0.0
0.0 0.0 0.0 0.0 0.0 0.0 0.0 0.0

bn2.running_mean f4 [16]
00000000: 0f63 40be 6a92 473e b17c d4be 23c2 433e
00000010: 732a b1be fecf 95bc 06c9 a0bd 5464 4fbe
00000020: d42c 4abd cf44 d7be 16ee 563c 63bf debb
00000030: 7ed5 903d 2bad bf3d b9a1 27be 665a 2ebe
-0.18787788 0.19489446 -0.41501382 0.19117026 -0.346027 -0.018287655 -0.07850842 -0.20253116
-0.049359158 -0.42044684 0.013118288 -0.0067977174 0.070719704 0.09359201 -0.16370286 -0.17026672

bn2.running_var f4 [16]
00000000: 55a6 5b3f 06dc e13e 3b51 8c3f 4cc8 883e
00000010: e464 de3f 41ef 6e3e c791 333e 4ad1 be3f
00000020: e38f 8e3e c2f8 b73f b784 7e3f 076f e33e
00000030: 680c 5e3f 075a 413e 52de 8c3e daf7 743e
0.8580068 0.44113177 1.096229 0.26715314 1.7374539 0.23333456 0.17536078 1.490762
0.27844152 1.437279 0.99421257 0.44420645 0.8673768 0.18881999 0.27513367 0.23922673

bn3.weight f4 [32]
00000000: 0000 803f 0000 803f 0000 803f 0000 803f
00000010: 0000 803f 0000 803f 0000 803f 0000 803f
00000020: 0000 803f 0000 803f 0000 803f 0000 803f
00000030: 0000 803f 0000 803f 0000 803f 0000 803f
00000040: 0000 803f 0000 803f 0000 803f 0000 803f
00000050: 0000 803f 0000 803f 0000 803f 0000 803f
00000060: 0000 803f 0000 803f 0000 803f 0000 803f
00000070: 0000 803f 0000 803f 0000 803f 0000 803f
1.0 1.0 1.0 1.0 1.0 1.0 1.0 1.0
1.0 1.0 1.0 1.0 1.0 1.0 1.0 1.0
1.0 1.0 1.0 1.0 1.0 1.0 1.0 1.0
1.0 1.0 1.0 1.0 1.0 1.0 1.0 1.0

bn3.bias f4 [32]
00000000: 0000 0000 0000 0000 0000 0000 0000 0000
00000010: 0000 0000 0000 0000 0000 0000 0000 0000
00000020: 0000 0000 0000 0000 0000 0000 0000 0000
00000030: 0000 0000 0000 0000 0000 0000 0000 0000
00000040: 0000 0000 0000 0000 0000 0000 0000 0000
00000050: 0000 0000 0000 0000 0000 0000 0000 0000
00000060: 0000 0000 0000 0000 0000 0000 0000 0000
00000070: 0000 0000 0000 0000 0000 0000 0000 0000
0.0 0.0 0.0 0.0 0.0 0.0 0.0 0.0
0.0 0.0 0.0 0.0 0.0 0.0 0.0 0.0
0.0 0.0 0.0 0.0 0.0 0.0 0.0 0.0
0.0 0.0 0.0 0.0 0.0 0.0 0.0 0.0

bn3.running_mean f4 [32]
00000000: b35c 3c3e 93e6 89bc f090 7b3d b85e 66be
00000010: 6dc9 6f3e 5969 673e 22af 89bd f254 93bd
00000020: e702 13bd 27e7 283e ca45 5e3e b928 913e
00000030: 3738 f8be a4e0 4b3e 680f 54be 5782 1f3c
00000040: 1c81 cabe d149 93be c990 3ebc 705d ee3d
00000050: 0064 eebd a115 a73d 75ba 82be 49f0 ddbd
00000060: 23b2 2d3e 91c2 d93c 14e8 803e 1eec 113e
00000070: 9b42 973e 26b8 d63b 7b29 423d 3247 52be
0.18394737 -0.01683358 0.06141752 -0.2249707 0.23416682 0.2259878 -0.06722857 -0.071939364
-0.03589144 0.16494428 0.2170631 0.2835138 -0.4848039 0.19909912 -0.20709002 0.009735665
-0.39551628 -0.28767255 -0.011631199 0.116389155 -0.11640167 0.08158422 -0.2553288 -0.108368464
0.16962485 0.026582034 0.25177062 0.14250228 0.29543003 0.006552714 0.04740284 -0.20534971

bn3.running_var f4 [32]
00000000: 2084 133e e0ad 883e 30a5 633d 803c 223f
00000010: 35ec 763e 8c61 b63e 91a5 8b3d ca4f 133e
00000020: 40f7 a03d c633 c03e b745 2c3e a13b d93e
00000030: 3354 603f 4492 a83e 77cc 873e 083a 913d
00000040: 5554 b63e 8742 f33e 9f16 a73e bcfc 933d
00000050: b761 9d3d 6771 cf3d e687 233e 7f6c 883d
00000060: 156a 8a3e 9358 803e c3ec e73d 96da 023e
00000070: 21eb 943f 9dd2 473e 05ca 483e af32 d23e
0.1440587 0.26695156 0.055577457 0.63373566 0.24113543 0.35621297 0.06818689 0.14385906
0.07859659 0.375395 0.16823469 0.42428306 0.8762848 0.32924092 0.26523182 0.07091147
0.35611215 0.47511694 0.32634446 0.0722594 0.07684653 0.10129052 0.1596981 0.06661319
0.2703406 0.25067577 0.113244556 0.12778696 1.1634256 0.19513936 0.19608314 0.41054294
